demo_model/demo_weights.pt (torch, 24773 bytes, 20 tensors)

pred_net.fc1.weight f4 [16, 16]
000000 b4 6c 41 3d 5f 21 bd bd 19 0d 88 bd cd 91 dc bb
       0.047222808 -0.09234881 -0.06643123 -0.006731248
000010 f3 be 21 3e 06 63 22 3e 49 98 50 be e6 d4 ac 3c
       0.15795498 0.15858087 -0.20370592 0.021097612
000020 4f df ac 3d 0d 21 8c be 2d 62 78 be 3f bb 65 bd
       0.0844103 -0.27368966 -0.24256201 -0.056086775
000030 54 a7 65 3d 3c 9c e5 3d 88 7b 58 3e 7d 40 c9 3d
       0.05606778 0.1121144 0.21140873 0.09826753
000040 45 cb 53 be d5 27 2a 3e c8 18 17 be 0d 76 86 bd
       -0.2068301 0.16616757 -0.14755547 -0.06565485
000050 e6 49 4b bd 45 75 de 3d ae ec 84 3e df 7d b0 bc
       -0.049631022 0.10862211 0.25961822 -0.021544395
000060 f6 11 99 be 85 c8 20 bd 80 4b 7e 3e 9d 3e 4d 3e
       -0.29896516 -0.03925373 0.24833488 0.20043416
000070 30 e6 88 3e d9 e7 66 3c 5e 9d d0 3d b5 15 4c 3e
       0.2673812 0.014093363 0.101862654 0.19930156
000080 18 84 79 3b 29 67 36 be bd cd 73 3d 02 b7 88 be
       0.0038073119 -0.1781279 0.05952238 -0.26702124
000090 38 f9 cf bc 3e d6 83 3e 98 53 8a 3e 92 4c 5d be
       -0.025387391 0.2574939 0.27016902 -0.2161124
0000a0 28 f4 e0 be d6 f7 63 3e 7b a8 9f be 28 84 32 3d
       -0.43936276 0.2226251 -0.31183228 0.043583065
0000b0 1d c4 d1 bd 56 7e 24 3e 1a b2 82 3e 80 16 cc 3e
       -0.10242484 0.16063818 0.25526506 0.39860916
0000c0 af 84 80 bd 47 f7 3b 3e 56 61 02 bd 00 51 71 3e
       -0.062753074 0.18356048 -0.031831108 0.23566055
0000d0 68 f6 c0 3e 7f 97 c8 be a5 19 f1 be 0b 6a 0d be
       0.37687993 -0.39178082 -0.47089878 -0.13809983
0000e0 f0 85 c7 3e 53 d6 35 3e 23 8e b5 3e 63 11 58 3d
       0.38969374 0.1775754 0.35460004 0.052750956
0000f0 61 5c 7a 3e f0 fd 0f bd ab e5 b9 be f1 17 bb 3d
       0.24449302 -0.035154283 -0.36308035 0.09135426
000100 5c f1 55 3e 32 05 3d 3e 80 e4 51 be 63 92 1c 3d
       0.20892853 0.18459013 -0.20497322 0.038225543
000110 a3 48 34 3d 43 6c 08 3e c0 2b 07 be 6c 2d 22 be
       0.044014584 0.13322549 -0.13200283 -0.1583764
000120 bb 30 31 3e 22 1b 9b bc 67 0a 17 3d 10 00 93 3b
       0.17303745 -0.018933836 0.036875155 0.0044860914
000130 a0 7a 7a be f0 30 b3 3e 2e 16 75 3e 2e 61 7c be
       -0.2446084 0.34998274 0.23934242 -0.24646446
000140 94 26 0e be 17 26 0f be f0 3a cc bd 75 02 43 bd
       -0.13881904 -0.13979374 -0.09972179 -0.047609765
000150 d6 4c 5d 3e 6f e7 2c 3e d3 8c 95 bd a7 76 ec bd
       0.21611342 0.1688516 -0.07302251 -0.11546069
000160 19 62 40 be 53 e1 1c be 3c 09 be 3b af c9 d0 3d
       -0.18787421 -0.1532033 0.0057994407 0.10194718
000170 8c f3 9b 3c 1d b1 f3 bd ec 92 a9 3d c7 f4 ff bc
       0.01903703 -0.11899016 0.08279976 -0.031244649
000180 dc a2 36 3e f8 43 a5 bd bf d9 a5 3d 14 c8 ab bd
       0.17835563 -0.08069605 0.080981724 -0.08387771
000190 e8 39 1a be 67 07 97 3d 2d 99 a2 bd 42 59 c5 bd
       -0.15061152 0.07374459 -0.07939372 -0.09636165
0001a0 2f bc a8 be df 63 b1 3d 89 35 7a bd c1 54 f2 3a
       -0.32956073 0.08661627 -0.06108621 0.0018488393
0001b0 f5 c7 08 be ff 44 03 3e 95 db 98 3c 64 9a 8e 3e
       -0.13357528 0.12819289 0.018659392 0.27852166
0001c0 e3 39 bb 3e cd ec d5 3e 40 20 21 3e ff 0a 84 be
       0.36567602 0.41782227 0.15734959 -0.2578964
0001d0 de d2 74 bd 22 41 c9 be 87 67 97 3e 50 a4 c7 bd
       -0.05977141 -0.39307505 0.29571173 -0.09748137
0001e0 a7 42 bb bd 16 86 24 bf 5f ac f1 3d e3 c0 86 be
       -0.09143572 -0.642671 0.11800455 -0.26319036
0001f0 d6 35 b0 3e 53 a0 ee bc 50 e1 b2 bd aa 92 b4 be
       0.34416074 -0.029129183 -0.08734381 -0.35268146
000200 cf 38 fd 3d 70 76 2e 3e af ce ba bd 30 36 32 be
       0.12364351 0.17037368 -0.09121453 -0.17403483
000210 95 58 b7 3b 13 59 22 be be 03 eb 3c 26 b5 86 bd
       0.0055952766 -0.15854292 0.028688308 -0.0657752
000220 8f e4 60 bc a0 a2 f8 3d ea f3 95 be 66 2d 33 3e
       -0.013726368 0.12140393 -0.29287654 0.17497787
000230 f9 55 ea bd d8 e0 d9 bc b9 18 51 3e c3 08 06 3e
       -0.11442179 -0.026596472 0.20419587 0.1308928
000240 05 7a 80 be 56 a0 bf 3e f5 62 18 3e 9b 35 9f be
       -0.25093094 0.37427014 0.14881499 -0.31095585
000250 b4 09 43 be 32 6f 89 be 3c 74 7c 3e 97 7d 38 3e
       -0.1904667 -0.26842648 0.24653715 0.18016659
000260 a0 71 cc be 9a a1 39 3e de 40 81 3e b0 28 9b 3e
       -0.3993044 0.18128052 0.25244802 0.3030448
000270 d3 cb e9 3e 2f af b8 be 0c 79 96 bd 54 ae 31 3e
       0.45663318 -0.36071154 -0.073473066 0.17351657
000280 86 80 70 be e3 11 5e be f8 63 a3 bd 6b f4 3d 3c
       -0.23486528 -0.2168651 -0.07978052 0.011593918
000290 86 0d 15 3d 4e fc 00 bc f0 c1 b9 3a 38 35 48 3e
       0.03638985 -0.007872654 0.0014172178 0.19551551
0002a0 b0 4c ad be ca 17 d4 3d 43 3b b3 be 4c ec 51 bd
       -0.3384757 0.103561 -0.3500615 -0.05125074
0002b0 35 36 37 3d a7 53 3c bd 6c d0 81 3e 65 cb bf 3d
       0.04472943 -0.045978215 0.25354326 0.09364966
0002c0 65 7d 89 3e 68 41 62 be dc 5a 01 3e c0 5d ba bd
       0.2685348 -0.22095263 0.12632316 -0.09099913
0002d0 67 f6 77 bc e4 37 12 3e be 7f fa 3d cc a4 95 be
       -0.0151344305 0.14279133 0.12231396 -0.29227293
0002e0 8e d3 c6 be 12 13 5e 3e 16 b7 8b be e8 a6 8a 3e
       -0.38833278 0.21686962 -0.2728812 0.27080464
0002f0 77 63 35 3b c7 e3 81 3e 82 b1 41 bd 1b 5c aa 3e
       0.0027677694 0.25369093 -0.047288425 0.33273396
000300 a8 fc 61 3e 73 8e 51 3e fe 75 c7 3a 8c 46 e7 bd
       0.22069037 0.20464496 0.001521766 -0.112927526
000310 46 e6 a7 3e 22 c2 0f be b2 6a d5 bd 5a e6 7b bd
       0.32792872 -0.140389 -0.10420741 -0.061498977
000320 b3 67 16 3e 19 ea 08 bf f2 21 81 be 77 3b 73 be
       0.14687996 -0.53482205 -0.2522121 -0.23753153
000330 96 81 ac be db 51 dd 3e bf fd d1 3e 71 60 a5 be
       -0.33692616 0.43226513 0.41013905 -0.3230014
000340 ae 6d 0a 3e 5b b2 d2 be 96 7a 55 3e bb db c9 be
       0.13518402 -0.411517 0.20847544 -0.39425454
000350 5c 5c 58 be 06 d9 30 3e cd 6e 72 bc ec 79 8e be
       -0.21128982 0.17270288 -0.014796925 -0.27827394
000360 8e fc 1d bf e4 60 5a 3e 79 7b 15 bf a3 f8 0f bd
       -0.6171349 0.21326023 -0.5839153 -0.035149228
000370 ce 3f 89 be 5e 4e 46 bd 0e 1c 76 3e 00 50 ab 3d
       -0.26806492 -0.04841458 0.2403414 0.08364868
000380 48 d7 7b bb 27 b5 c0 bd 77 80 aa 3d d1 d5 2e bd
       -0.0038427878 -0.09409552 0.08325284 -0.04268438
000390 e5 18 8a 3e 8f bb f5 3d f4 4a 3a be 58 98 a9 3d
       0.26972118 0.119986646 -0.18192655 0.082810104
0003a0 c9 9d 8b 3e 3f 4b 89 be fd 9e 56 3d 20 7a 45 be
       0.27268818 -0.2681522 0.052397717 -0.19284868
0003b0 a0 b1 0a be 98 4e 05 be 1f ff 03 be 9a e4 aa bc
       -0.13544321 -0.13018262 -0.1289029 -0.020860959
0003c0 08 f2 1c be 99 68 bb bd db 15 3a be cb ca e7 3d
       -0.15326703 -0.0915081 -0.181724 0.113179766
0003d0 80 ad 75 bd 76 57 9c 3d 3e d6 1b 3e 0e 89 3d bd
       -0.059979916 0.07633869 0.15218446 -0.046273284
0003e0 a6 f4 97 3d 1e 6a 05 3e c2 b4 70 3d df a4 88 3e
       0.0741971 0.13028762 0.058766134 0.26688287
0003f0 b9 34 20 3e 78 50 6b 3d 54 5b 65 bd 53 68 3c 3e
       0.15645112 0.057449788 -0.0559953 0.18399172

pred_net.fc1.bias f4 [16]
000000 87 68 a6 be 80 74 e8 be 57 01 73 3c 6b eb 05 be
       -0.32501623 -0.45401382 0.014831862 -0.13078086
000010 e5 ac ab be 47 f8 8f bc 86 7a dd 3d 87 f0 72 bf
       -0.33530346 -0.017574443 0.10814385 -0.94898266
000020 2f 01 2d 3e de 6e 76 bf ed 53 70 bd 55 e9 82 3e
       0.16894983 -0.9626292 -0.058673788 0.25568643
000030 a2 ce 82 bf 70 b2 55 be b7 12 97 bc d4 6c a0 be
       -1.0219309 -0.2086885 -0.018441541 -0.3133303

pred_net.fc_policy.weight f4 [2, 16]
000000 76 9b 04 be 95 c9 6e 3e 2a b3 85 3d 39 7d ea bd
       -0.12949929 0.23319085 0.065283135 -0.114496656
000010 8d 91 ef 3d 32 5e 80 bb 0d aa 28 be 99 d9 d7 bd
       0.116976835 -0.003917479 -0.16471119 -0.1053955
000020 bf a2 87 bc 8f a5 e4 3d 88 35 0b 3e 9d 56 c7 3c
       -0.016557096 0.1116439 0.1359464 0.024333293
000030 e9 6b 47 bd 38 b1 03 3e 0e 59 0b be 3f 28 76 3e
       -0.048686896 0.12860572 -0.1360819 0.2403879
000040 b2 0d d9 bd 3f 68 b4 ba 08 f5 a7 3b 2a 86 94 be
       -0.10598315 -0.0013763978 0.0051256455 -0.2900861
000050 0a 84 17 3e 57 e7 93 3b 91 b1 c6 bb 64 88 33 be
       0.14796463 0.004513662 -0.006063648 -0.17532498
000060 2f 83 78 be 9d 74 e2 3d 05 4d e4 3d d2 6f 8e 3c
       -0.24268793 0.110573985 0.11147503 0.017387304
000070 ff d2 bf bd 2b 68 e0 bd d4 c6 43 3e 21 8f f4 3d
       -0.09366416 -0.109573685 0.19118816 0.11941362

pred_net.fc_policy.bias f4 [2]
000000 8c 9c 04 3e bf 86 39 3e
       0.12950343 0.18117808

pred_net.fc_value_embedding.weight f4 [16, 16]
000000 78 6a 01 3e 15 15 c8 3d 3d ac fd be 0c 7d 6c 40
       0.12638271 0.09769646 -0.4954547 3.6951323
000010 3d 32 91 3e f1 fc 84 be 6a 4b 56 be 2c f7 60 40
       0.2835864 -0.2597423 -0.20927206 3.5150862
000020 81 53 3a be b9 df 20 3f 35 ab 8e bd f7 b6 c2 be
       -0.18195917 0.62841374 -0.06966249 -0.38030216
000030 f4 75 e3 3e 76 7b f0 be 2c 85 2f 40 0b 37 5d 3e
       0.4442593 -0.46969193 2.7425032 0.21603028
000040 4a 4e b5 3d b0 d1 48 be e8 59 69 3d 9c 2c 60 c0
       0.08852823 -0.1961124 0.056970507 -3.5027227
000050 46 83 41 be 06 fd b2 3d ca c4 b1 3d 26 5e fd 3e
       -0.18897733 0.08739667 0.08680113 0.49485892
000060 da 30 19 3f e2 54 39 bf c7 d7 d6 3e a0 bb 11 3f
       0.59840167 -0.72395146 0.419615 0.5692692
000070 12 de 13 bf 00 90 1c 3e 0e c8 3b c0 fc ca 64 3e
       -0.5776073 0.15289307 -2.9340854 0.22343057
000080 f7 a5 c5 3e a3 fa a9 bd fb 15 a5 3e b2 7b 97 c0
       0.38603184 -0.08299758 0.32243332 -4.7338495
000090 1d 36 93 be bc e0 a4 3e 0b fe c1 3e b3 e5 bd bc
       -0.28752223 0.3220271 0.37889132 -0.023180818
0000a0 83 23 3a 3f 58 01 a0 bf 3a 92 bc 3e 8a 89 14 3f
       0.72710437 -1.250041 0.36830312 0.5802237
0000b0 93 73 ac be 20 7c 86 3e d0 8a 52 c0 25 39 a5 bc
       -0.33681926 0.26266575 -3.2897224 -0.02016885
0000c0 15 a1 bc be a3 fe ed 3a 3e 49 15 3f 23 74 01 40
       -0.36841646 0.0018157553 0.58314884 2.0227134
0000d0 19 9a 00 be fa b5 49 bd 85 fc 0f 3e 3a 84 46 c0
       -0.12558784 -0.049245812 0.14061172 -3.1018205
0000e0 fd c0 09 3c 84 8b af 3b 5d ae be 3d 0a 2b fc 3c
       0.008407828 0.0053572077 0.09310601 0.030782241
0000f0 a2 ae 04 bf be 9b 4e 3e 5f 01 94 3f 7b 0b 6f 3e
       -0.5182897 0.20176598 1.1562918 0.23344223
000100 9e 83 f7 bd 3c 78 93 bd 86 00 83 3f e0 98 63 c0
       -0.12085651 -0.07200667 1.0234535 -3.5562057
000110 05 03 5c bf 3f 9b 1a 3d 29 63 18 3f 50 b0 c7 c0
       -0.8594211 0.03774571 0.59526306 -6.2402725
000120 aa 5d 7e 3f 31 29 c4 bf 79 c3 6d 3f 4f fa ae 3f
       0.9936167 -1.5325071 0.9287639 1.3670138
000130 f8 c1 e0 bf 3a 33 1d 3f 62 f8 86 c0 ee a0 36 3e
       -1.7559195 0.6140629 -4.21782 0.17834827
000140 1f fa d1 be 4c cf 8e 3e 90 c9 3b bf f7 e5 21 40
       -0.4101114 0.2789253 -0.73354435 2.529661
000150 32 fa ca 3e cf 62 8d be 24 91 e8 be b9 91 df 3f
       0.3964401 -0.27614447 -0.45423234 1.7466346
000160 e9 c7 25 bf dd 47 dc 3f f4 4d da be 18 2b 0b bf
       -0.64758164 1.7209431 -0.426376 -0.5436263
000170 3f f6 f2 3e 02 6f ee be 21 6e 11 40 fc 1d 25 3e
       0.47453496 -0.46569067 2.2723467 0.1612472
000180 75 da 9c 3e 7d db ab 3e 0c 13 04 bf 1e 48 05 bf
       0.3063542 0.33565894 -0.51591563 -0.5206317
000190 85 f2 65 3e 6a 4a 26 3e 8e 90 80 be b1 63 60 40
       0.22455795 0.16239324 -0.25110286 3.5060847
0001a0 e6 4f 32 be 38 f2 92 3f 17 88 81 be e3 ca 92 bc
       -0.17413291 1.1480169 -0.2529914 -0.01791901
0001b0 f8 20 49 3f 80 43 43 be 48 52 8b 3e 37 af 5b be
       0.7856593 -0.19068718 0.27211213 -0.21453558
0001c0 57 b7 8b 3e 16 cb 07 be 77 65 80 3e 57 e2 c8 3f
       0.27288315 -0.13261065 0.25077412 1.5694073
0001d0 16 88 77 3e 5c 4f ef bd 20 92 a6 3d 50 b1 05 3f
       0.24173006 -0.116850585 0.0813334 0.5222368
0001e0 9b 1b 54 3e fe 39 00 3e 59 38 76 3e ba 63 9d 3d
       0.20713656 0.12522122 0.24044932 0.07685037
0001f0 8a 6b af 3d 09 f8 fe 3c 73 27 8a 3f 91 e0 6f 3e
       0.08565433 0.031124132 1.0793289 0.23425509
000200 d4 87 35 3f d5 34 9d be 0e 36 21 3c 5f 26 fa 3f
       0.7091038 -0.3070437 0.009839548 1.954296
000210 2a 76 05 3e d2 f8 4f be 5a 82 0c be 3d 99 20 40
       0.13033357 -0.20309761 -0.137216 2.509353
000220 00 7f 7a bd 22 26 e3 be 83 89 63 bd 9a 24 d1 be
       -0.061156273 -0.4436503 -0.055551063 -0.40848237
000230 16 e3 0e 3f 9a c5 11 be 14 00 c5 3f 7e 56 42 be
       0.55815256 -0.14235535 1.5390649 -0.18978307
000240 3d c3 e3 3e 4f 3c f0 bd ce 95 11 be 86 ce 9f bf
       0.44484892 -0.11730253 -0.14217302 -1.2484901
000250 88 62 d8 3d 82 9d a5 3e 24 cb 0b 3d 67 99 24 40
       0.10565668 0.3234673 0.034129277 2.571863
000260 7c 8b 61 3e 82 32 6d 3e 95 f8 68 3d a4 da 18 3f
       0.22025865 0.23163798 0.05687769 0.5970862
000270 ae bb 2f 3f b4 c6 86 bd ac 89 6f bf 91 b3 3b 3e
       0.6864575 -0.06580868 -0.93569446 0.18330218
000280 10 05 05 bf 78 d5 55 3e 3a d1 74 bf a2 8c 1a bf
       -0.5196085 0.20882213 -0.95631754 -0.6037084
000290 66 00 94 3e aa 19 0c be b0 88 e0 be 6d 5e de 3f
       0.28906554 -0.13681665 -0.43854284 1.7372566
0002a0 38 40 2f bf 9c 70 be 3f 09 ca 20 bf 38 d9 2e bf
       -0.68457365 1.4878116 -0.6280828 -0.683002
0002b0 bb 4e 3b 3f c9 87 04 bf 55 9f 2b 3f 86 15 ca 3d
       0.7316701 -0.5176969 0.67039996 0.098673865
0002c0 fc 3c a4 bf 0e de 61 be ab 23 0d 40 f8 9d ab c0
       -1.2831111 -0.22057363 2.205302 -5.3630333
0002d0 30 24 e5 bf 3e f8 b0 3e 0c b5 c0 3f 02 3a 74 c1
       -1.7901669 0.34564394 1.5055251 -15.264162
0002e0 c9 43 cf 3f 77 74 36 c0 06 ab c6 3f c7 1e 0c 40
       1.6192561 -2.8508584 1.5520942 2.1893785
0002f0 5c e0 83 c0 53 00 ab 3f 71 3c d0 c0 d6 eb 4e 3e
       -4.1211376 1.3359474 -6.507378 0.20207152
000300 c6 59 5a 3d 18 98 81 bd 74 e0 01 3f de 66 48 c0
       0.05330827 -0.06327838 0.50733113 -3.1312785
000310 c6 87 c3 be 54 79 c6 3e 21 73 ed 3e 55 95 b3 be
       -0.38189524 0.3876444 0.463769 -0.3507487
000320 0a 17 5f 3f 1c c9 55 bf b5 80 17 3f 97 23 47 3f
       0.8714453 -0.83509994 0.59180766 0.7778868
000330 60 82 6c bf 49 c7 d1 3e 05 08 1f c0 d2 94 07 be
       -0.92386436 0.40972355 -2.4848645 -0.13240364
000340 b4 26 05 3f 11 60 ef 3d f6 07 23 bf 62 e2 2f 40
       0.5201218 0.11688245 -0.6368402 2.7481923
000350 e4 b7 3e 3f 43 82 0f 3d 41 0c 0b bf 26 13 b1 40
       0.74499345 0.035036337 -0.5431557 5.5335875
000360 c0 1d 1d bf 37 ba a3 3f 10 b6 27 bf 50 f1 2d bf
       -0.6137352 1.2791203 -0.6551218 -0.6794634
000370 cf 21 0d 40 1c f6 e7 be 89 91 42 40 da ec 02 3e
       2.2051885 -0.45304954 3.0401328 0.12785664
000380 55 56 cc 3d b9 5b 86 be 20 81 8e 3f 83 2f 30 bf
       0.09977404 -0.26241854 1.1133156 -0.688225
000390 3c 55 a8 be c3 50 4d 3a b2 84 0a 3f d7 31 86 c0
       -0.3287753 0.0007832164 0.54108727 -4.193584
0003a0 6f 06 10 3f 81 a1 bc bf b1 de 06 3f 32 b9 0f 3f
       0.56259817 -1.4736787 0.5268355 0.5614196
0003b0 3e 0c 86 bf a9 ed da 3e 8a 84 aa bf 39 cf c9 3c
       -1.0472486 0.42759445 -1.3321698 0.024634944
0003c0 e6 61 13 3f c3 d5 1e 3e 74 30 88 bf 5e 76 b3 3f
       0.57571256 0.15511231 -1.0639787 1.4020498
0003d0 86 0e 92 3f 1b 86 bc bc 37 ad 1c bf fd 6c 02 41
       1.1410682 -0.023013165 -0.61201805 8.151608
0003e0 2d 09 21 bf 3f ae 9b 3f b1 eb 31 bf dc 42 70 bf
       -0.62904626 1.2162551 -0.6950026 -0.9385202
0003f0 e3 00 02 40 83 f7 25 bf 20 fb 1d 40 d8 ec f4 3d
       2.0313041 -0.648308 2.4684525 0.11959237

pred_net.fc_value_embedding.bias f4 [16]
000000 c8 cb 81 40 a6 9e af be 1c 6b 05 c0 1c 79 49 bf
       4.0561256 -0.34300727 -2.0846624 -0.78700423
000010 2c 5d 86 c0 d5 c6 42 40 9b 50 01 40 93 bb 9c 3f
       -4.1988735 3.0433857 2.0205448 1.2244743
000020 f8 6e 0e 40 7b d6 8b 3e b1 3e a7 3f b7 8d 37 c1
       2.225523 0.27312073 1.3066007 -11.472098
000030 fd 9d fd bf 0c 2c 70 40 4d 91 2a c0 e2 ba a9 40
       -1.9813839 3.7526884 -2.6651185 5.304063

dyna_net.lstm.weight_ih_l0 f4 [64, 16]
000000 4e f4 1f 3e dd 1c 4d 3e 7f e6 67 be a6 51 15 bd
       0.15620539 0.20030542 -0.22646521 -0.03645482
000010 65 04 19 3e 4e de b7 bc b0 a5 49 3e 47 fd 9c 3d
       0.14943083 -0.02244487 0.19692111 0.07665496
000020 94 93 4a 3e ba f8 7f bd 97 bc 99 bd 8e f0 33 be
       0.19782859 -0.062493064 -0.07506674 -0.17572233
000030 d6 90 42 3b 3c 6e 4c 3d 0d db 45 be 39 3a 1f be
       0.002968838 0.049909815 -0.19321842 -0.15549554
000040 8d de 25 3b e7 fd 9d bd e3 3d 0c be b8 07 22 3e
       0.0025309653 -0.07714444 -0.13695483 0.15823257
000050 c9 e3 0a 3d 0c 5c 56 be 4c 6c 20 be 78 65 e0 3d
       0.03390864 -0.2093355 -0.15666312 0.10956854
000060 2c 73 22 3e c1 48 a7 3d 7c bc 09 3e 79 11 89 bc
       0.15864247 0.081681736 0.13450807 -0.016731964
000070 c7 f2 17 be 03 b3 58 be a0 6c 0e 3d 3f 63 50 3e
       -0.14838706 -0.21162038 0.03477156 0.2035036
000080 c5 9e 15 3d bf e7 c9 bd 4e 0a b2 bd de 83 39 be
       0.036528368 -0.09858655 -0.08693372 -0.1811671
000090 a2 6b 90 bd dd 04 c1 3d 4b 98 57 3e 48 54 d1 3d
       -0.07051779 0.09424756 0.21054189 0.102211535
0000a0 3d 16 27 3e b2 a4 b6 bd c6 5f 72 3d b7 55 ff 3d
       0.16317077 -0.08918132 0.059173368 0.12467521
0000b0 02 be 0f 3e db b0 f1 3d 48 3f 9d 3d e9 d4 29 3e
       0.14037326 0.11801311 0.076780856 0.16585125
0000c0 05 65 5c bd e9 84 34 3e f4 92 fd 3d 0d 72 0a 3e
       -0.053807277 0.17628826 0.12381545 0.1352007
0000d0 08 c2 52 be 3f 61 d4 3d be 9f ae bc ee 94 62 bd
       -0.2058183 0.10370111 -0.021316405 -0.05531781
0000e0 d0 35 f8 3d aa 8a 31 3e fe 1f dc bc ec 2b 8c 3d
       0.12119639 0.17338052 -0.026870724 0.06844315
0000f0 de ba 10 bd 3f 0a 46 3e 2a a3 4d 3e 5a 11 6c bc
       -0.03533446 0.19339846 0.20081773 -0.014408434
000100 ae 4a 1c 3e 4e 36 2f 3e 34 7b 5d be 0b 13 b8 3d
       0.15262863 0.1711056 -0.2162903 0.08988007
000110 1f 43 cb bd da 65 1c be a8 4c 45 be 6c 33 3e be
       -0.09924912 -0.15273228 -0.19267523 -0.18574303
000120 03 b7 02 3e fd be 3a be 91 57 81 3d e9 79 22 be
       0.12765126 -0.18236919 0.0631553 -0.15866818
000130 73 b2 0d bc 0b 6f 39 3e 5b 83 93 3c fc 3e b3 3d
       -0.008648503 0.18108766 0.018006971 0.08752248
000140 91 9a d4 3d 28 e0 0a 3d c6 33 29 be 64 1c 1b be
       0.10381044 0.03390518 -0.16523656 -0.15147549
000150 83 8e 8f bb 03 10 15 be 05 77 a0 bd 52 05 92 3c
       -0.0043810024 -0.14556889 -0.07835201 0.017824803
000160 03 c8 97 bd a2 28 1f 3d 53 37 50 3e e1 d8 bb 3d
       -0.07411196 0.03885711 0.20333605 0.09172226
000170 0a 7b f3 ba 9f e1 2b 3c 10 0f 4e be 96 12 01 be
       -0.0018576097 0.010490804 -0.20122933 -0.12604746
000180 57 58 90 bd 35 4e 4a bd aa 50 cd bd 01 5c 18 3d
       -0.070480995 -0.04939099 -0.10025151 0.037197117
000190 71 49 54 3e a6 e9 45 3e 5b 9a 2a 3e 4c d9 36 be
       0.2073114 0.19327411 0.16660444 -0.1785633
0001a0 b6 01 a0 bd 12 3a 1d 3e 07 fc 4f be db 7b 42 be
       -0.07812826 0.15354183 -0.20310985 -0.1899256
0001b0 7d 5b 9a b9 a1 44 c2 3c c8 39 04 be df d4 4c be
       -0.00029441333 0.023714365 -0.12912667 -0.20003079
0001c0 93 d0 a0 bd e1 24 29 3e c3 33 2f be 2e 3e 72 be
       -0.078522824 0.16517974 -0.1710959 -0.23656532
0001d0 61 9e 53 bd e5 e3 81 3d f3 3e 07 3d c5 06 4c 3e
       -0.051664714 0.063422956 0.033019017 0.19924457
0001e0 5d 63 01 3d 23 fc 68 3e 3d cd de ba 04 56 62 be
       0.0315889 0.22752433 -0.0016998422 -0.22103125
0001f0 26 bf 5f bc 60 60 11 bd 0f 54 ac bd fa 7e 8d bd
       -0.013656413 -0.0354923 -0.084144704 -0.069089845
000200 e2 e6 95 ba 56 f4 c6 bb c4 ae 23 3d 83 2e 0a 3e
       -0.0011436606 -0.0060716076 0.03996159 0.13494305
000210 c9 8a 06 be d4 ea 9c 3d e0 14 61 be 16 a3 27 3d
       -0.1313888 0.076619774 -0.2198062 0.040927015
000220 eb 62 60 3e 36 76 d8 bd c0 31 55 3e aa a1 2b 3e
       0.21912734 -0.10569422 0.2081976 0.16760889
000230 21 36 14 3d 40 36 91 bd b0 57 45 ba 81 35 5e 3e
       0.036184434 -0.070904255 -0.000752802 0.21700098
000240 a1 8e 90 bd f2 68 51 be 8b bd 81 3d a0 b2 c4 bc
       -0.07058454 -0.2045019 0.063349806 -0.024010956
000250 56 d1 1a 3d 56 5e 07 be 8d fd 91 bc 12 8e 34 bd
       0.037797295 -0.1321958 -0.017821098 -0.0440808
000260 ed 50 69 bd b7 6e d8 bc 49 6d ff 3d 44 46 60 bd
       -0.056961942 -0.02641998 0.12472016 -0.05475451
000270 b4 65 62 3d 2b c3 50 3e 9a b3 7d 3d 2b ec 0e bc
       0.055272773 0.2038695 0.06193886 -0.008723299
000280 b5 78 9f bd a8 65 48 3d 64 f6 8d 3d 0d 6e c4 3d
       -0.07786695 0.048925072 0.06931761 0.09591303
000290 91 e6 20 be 61 9f 24 3e 5b 4e f7 3d 3d 6c a0 bc
       -0.15712954 0.16076423 0.12075492 -0.019582862
0002a0 e9 64 26 3e 08 21 59 be 9b 22 4a be c5 c1 5e 3d
       0.16249432 -0.21204007 -0.19739763 0.05438401
0002b0 3f f7 9d bb b8 3a 0a be e9 a6 14 3e 74 7f db 3b
       -0.004820734 -0.13498962 0.14516796 0.006698543
0002c0 2f 2c 85 3d b8 48 64 3e 67 82 a4 bd 53 0f 5a bd
       0.06502568 0.22293365 -0.08032685 -0.05323727
0002d0 07 50 2e bd 02 e2 08 be ba 1f d7 3c 6f 0a ea 3a
       -0.04255679 -0.13367465 0.026260246 0.0017855893
0002e0 c8 8a 3e 3d a2 ba 8d bd 22 a6 39 be 18 76 09 be
       0.04651907 -0.06920363 -0.18129781 -0.13423955
0002f0 3d e4 61 3e 28 21 a5 3c 26 d2 4e be e7 75 88 3c
       0.22059722 0.020157412 -0.20197353 0.016657783
000300 af da 1f 3e d8 87 03 be 5e 52 27 be 47 5a 13 3e
       0.15610765 -0.12844789 -0.16340014 0.14389907
000310 8b 3f c1 bd 92 d2 09 3e a1 b6 45 be 36 e4 08 3e
       -0.09435948 0.13459232 -0.19307949 0.13368306
000320 34 7d 1e be e4 9b b0 3d d5 d7 21 3e 3c cb 09 3e
       -0.15477449 0.08623484 0.1580499 0.13456434
000330 fb c8 25 3e d2 d2 69 bd 05 06 89 3c 8f 52 04 3e
       0.16189949 -0.05708582 0.016726503 0.12922119
000340 81 68 c6 ba 23 4c ae bd f4 87 dd bd 40 1f 63 bc
       -0.0015137346 -0.08510616 -0.108169466 -0.013862431
000350 04 32 d6 3d 80 3f d3 bd 4a 68 36 be a4 b9 80 bb
       0.104587585 -0.10314846 -0.1781322 -0.00392838
000360 94 21 32 3e 6a 4b f5 bd 07 93 68 bd 10 57 0b be
       0.17395622 -0.11977275 -0.05678084 -0.1360743
000370 61 fc 1d be 4f dc 54 3e 17 81 02 bb 8e 47 43 3e
       -0.15428306 0.20787166 -0.001991337 0.19070265
000380 a6 39 20 be 96 58 f9 3d b7 ee 5d bc 95 b6 0e 3d
       -0.15646991 0.121750996 -0.013545684 0.034842093
000390 84 85 35 be 4a 4e 33 3e 9f c8 fe bd 1a 3a 32 3e
       -0.17726713 0.17510334 -0.12440609 0.17404976
0003a0 c8 89 2d 3d 6a 67 b9 3d 1c 9d 35 be d9 bc 16 be
       0.042367727 0.09052928 -0.17735714 -0.14720477
0003b0 d2 7a 15 3e e2 18 bd 3a 4f fe fb bd 58 72 ac 3d
       0.14597633 0.0014426971 -0.12304365 0.08420247
0003c0 ab e1 c8 bd f6 33 00 be 30 fc a3 3b 8d 48 1a 3d
       -0.09808668 -0.12519822 0.0050044283 0.037666846
0003d0 ff 77 2e 3e c9 ad bb ba f3 30 59 3e 26 b9 c1 3c
       0.17037962 -0.001431876 0.21210079 0.023647856
0003e0 7a b3 63 3c d9 c2 32 bc ee e8 50 be 5a a1 b9 bc
       0.013897771 -0.010910713 -0.20401356 -0.022659946
0003f0 dc 67 09 be 0b f3 70 3d 95 26 3e 3d 23 4c ae bd
       -0.13418525 0.058825534 0.046423513 -0.08510616

dyna_net.lstm.weight_hh_l0 f4 [64, 16]
000000 98 57 cf bd 5c c7 32 be 69 d7 98 3d 74 3b 0b 3d
       -0.10124129 -0.17458862 0.07462961 0.033992246
000010 3e 6f 40 3e 02 c9 e6 bd 75 ce 03 be f0 68 48 be
       0.18792436 -0.11268808 -0.12871726 -0.1957128
000020 bf af 99 bd 0a 27 6c be 3b db fb 3d 14 7f 1b be
       -0.07504224 -0.23061767 0.12297674 -0.15185195
000030 25 df 98 3d 92 81 bd bd bf 03 23 be d7 83 5e be
       0.074644364 -0.09253229 -0.15919398 -0.2172998
000040 6f a5 47 3e f3 54 0c 3d 0d 25 2a 3d 39 40 36 be
       0.19496702 0.0342607 0.04153924 -0.17797936
000050 18 20 6c bd d1 f5 4d be a1 95 40 3d e5 18 3e 3e
       -0.057647794 -0.20113303 0.047017697 0.18564184
000060 1d b3 ad 3d 40 c7 3c 3d d1 97 06 be 60 a9 13 be
       0.08481429 0.046088457 -0.13143851 -0.1442008
000070 16 87 23 3e a4 5c 53 3d dc 7a 24 bc 92 24 c6 3d
       0.159695 0.05160202 -0.010039058 0.09674944
000080 f1 6b 11 3e 60 80 76 3d e7 4e d6 bc c6 dc 0a bc
       0.14201333 0.06018102 -0.02616067 -0.008475488
000090 aa 03 bd 3b 1f 46 49 3e 21 84 8e bd d5 09 5c be
       0.005768259 0.19655655 -0.06958795 -0.21488126
0000a0 9e 24 f5 3d fd 76 0f 3e a7 9d 76 bd 50 a2 5e be
       0.11969875 0.14010234 -0.060208943 -0.21741605
0000b0 89 91 85 be 8e 3f 29 3d 1f 85 c4 3d 26 fe 47 3e
       -0.26087597 0.041320376 0.09595703 0.19530544
0000c0 6e 82 a1 3d 46 14 60 bc 7c b3 0f be 2f ab ce bd
       0.078862056 -0.013676709 -0.14033312 -0.100912444
0000d0 0d fe eb 3d 12 3d 16 3e 03 ae 49 3d 25 f8 3b be
       0.11523066 0.14671734 0.049238216 -0.18356378
0000e0 3a 36 5c 3e 38 b0 b7 3d d6 24 30 bd 0a 85 17 3d
       0.21505061 0.08969158 -0.04300388 0.03699211
0000f0 3c 6a 36 bd 4c 38 0e bd 8e 08 7a 3d cd 8d e9 bd
       -0.044534907 -0.034721658 0.061043315 -0.114039995
000100 a8 d9 b1 bd 75 a2 5c be 31 4c b2 3d 8e fe b4 3c
       -0.08684093 -0.21546347 0.087059386 0.022094037
000110 d2 e9 05 be 32 aa 48 3e ac ed 2a 3d d4 08 69 be
       -0.13077477 0.19596174 0.041730568 -0.22757274
000120 6b 3a d4 3d 55 82 c5 3d b1 29 56 be 77 20 56 3e
       0.10362705 0.096439995 -0.20914342 0.20910822
000130 cd 06 1d 3e c4 22 51 3e 94 4e ec bd 44 ea 55 be
       0.15334626 0.20423418 -0.11538425 -0.20890146
000140 95 ad a5 3d 8b 20 16 be 38 af 0d 3e e0 fc 53 be
       0.08089749 -0.14660852 0.13836372 -0.20701933
000150 f0 f4 8c bd 78 9b d2 bd 75 7a 5f 3e 96 ba 1c 3e
       -0.068826556 -0.102835596 0.21824057 0.15305552
000160 ce df ba 3d 1a f6 b2 3d a8 d8 47 3e b6 e2 00 be
       0.091247186 0.087383464 0.19516242 -0.12586483
000170 9f 15 b5 bd d3 49 4a bd a5 42 a8 3d cc e7 14 bd
       -0.088420145 -0.04938681 0.082158364 -0.03635387
000180 93 cb f3 3c 83 03 ef 3d e3 19 46 3e e1 63 cd 3d
       0.029760158 0.11670592 0.19345812 0.10028816
000190 ca 8b 61 be 67 17 53 3c 3f 04 50 be 38 8c aa 3d
       -0.22025982 0.0128839975 -0.2031412 0.08327526
0001a0 54 47 5e 3e 33 e0 0a bc 65 2f 9e bc 9d 92 81 bd
       0.21706897 -0.008476305 -0.019309709 -0.063267924
0001b0 8c 16 f8 3d 17 1e 4f be 18 fa 4d 3e 9c a1 1e 3e
       0.121136755 -0.20226322 0.20114934 0.15491337
0001c0 43 b7 c8 bd f0 51 06 be 6b d0 db bd b0 bb 84 3c
       -0.098005794 -0.13117194 -0.10733112 0.016202778
0001d0 87 bc cc 3c 6c 9d e4 3d ec 40 ee bd 48 29 0b 3d
       0.02499224 0.11162838 -0.116334766 0.033974916
0001e0 9d e8 10 bd 49 79 8b bd 0e 9d 3d 3e 29 e8 1f 3d
       -0.035378087 -0.06810243 0.18516943 0.039039765
0001f0 fe e4 14 be ec 56 37 3c 6d de 3b be 60 56 52 3c
       -0.14540479 0.011190157 -0.18346567 0.012837976
000200 79 a4 02 3e 4b cd d7 bc 98 6b 06 3e 4f 16 06 be
       0.12758054 -0.026343009 0.13126981 -0.13094448
000210 42 fd d5 3c 4a 69 94 3d 27 84 85 3d a8 27 31 be
       0.02612174 0.07246645 0.06519347 -0.17300284
000220 6b 14 12 3e ee 9d 30 be e4 67 f1 3c 15 16 c3 bc
       0.14265601 -0.17247745 0.029468484 -0.02381424
000230 b7 cd 5c 3b b7 c4 38 3c 7b 1c 69 bd 53 1e 9a 3d
       0.0033691952 0.011277369 -0.056911927 0.07525315
000240 b9 6d ca bd 6d 3e bf 3c e1 a5 b6 3d 46 cf 48 bd
       -0.09884209 0.023345197 0.08918358 -0.049025796
000250 02 7b 9d 3d ca 35 80 bc ab 71 dc ba 57 97 c9 3d
       0.076894775 -0.015650649 -0.0016818544 0.09843319
000260 87 28 4f be e7 8a b4 3d d7 28 2c be 41 30 4e be
       -0.20230304 0.08815556 -0.16812454 -0.20135595
000270 33 a0 a6 3d f2 3f 12 be df 86 08 be ee 2f c3 bc
       0.08136024 -0.14282206 -0.13332699 -0.023826566
000280 46 99 c7 3d 76 fa 13 3e 36 c4 fe bd cb 04 85 bd
       0.097460315 0.14451012 -0.12439768 -0.06495055
000290 28 d0 15 be e2 21 9a bb 80 47 f6 bd f1 9c 35 3e
       -0.14630187 -0.004703746 -0.12025356 0.1773565
0002a0 22 13 90 3d 09 88 52 bd f6 9b 2a be 2b 5d 52 3d
       0.07034899 -0.051399264 -0.16661057 0.051358383
0002b0 77 96 ec 3d e1 4e 38 3e 98 7f 37 bd b4 38 5a 3e
       0.115521364 0.1799884 -0.044799417 0.21310693
0002c0 1e 42 eb 3d b0 5d ae bd 83 6c a0 bd 82 af fd 3d
       0.1148722 -0.08513963 -0.07833197 0.12386991
0002d0 fe 3b 40 be 78 12 65 3e de a2 8b bc 57 25 e9 bc
       -0.18772885 0.22370327 -0.017045435 -0.028460188
0002e0 dc c1 4a 3d 50 57 5d 3c 7d f7 bd bd 20 40 1c be
       0.049501285 0.013509586 -0.0927572 -0.15258837
0002f0 de 7e 47 3d 26 4c ef bd 51 8e e0 bc 22 fa e9 3d
       0.048704974 -0.11684446 -0.027411612 0.11424662
000300 0f 9e 89 3d 04 60 dd bd 84 e5 2f 3e 68 ee 27 be
       0.067196004 -0.10809329 0.17177397 -0.16399539
000310 52 ad 98 3d b8 82 d2 3d ac 3e 77 3d 97 a8 5e bb
       0.07454933 0.10278839 0.060362503 -0.0033975
000320 8d 7d 0d 3e 69 35 78 3d 98 cd 5c 3e 70 75 c9 3d
       0.13817425 0.06059781 0.21562803 0.098368526
000330 b3 a1 83 be 59 a5 54 3e 6d 40 f2 b9 7a b0 3d be
       -0.25709304 0.207662 -0.00046205838 -0.18524352
000340 d8 36 2d be 23 b1 3a be 89 f0 c0 3d ab 69 5e 3e
       -0.16915452 -0.18231635 0.094208784 0.21719997
000350 ae 5d 93 bd 85 4c e8 bd ee 2a 0c 3d ea 8c 16 be
       -0.07195602 -0.1134272 0.03422063 -0.14702192
000360 b9 ee 9d bc c0 7f a6 3d 04 83 a6 bd 79 88 cb 3d
       -0.01927887 0.08129835 -0.08130458 0.099381395
000370 06 49 be bd ac 16 de bc 7e 7e 01 be aa 80 f6 3c
       -0.09291272 -0.02711042 -0.12645909 0.030090649
000380 4d 3f bf bd 1b 4e 7d 3d 7c d0 94 bd 87 a0 c3 3d
       -0.093382455 0.061842065 -0.07266328 0.095521025
000390 e6 ce f2 3d 7f 75 66 be e1 03 42 3d b9 be 0c bd
       0.11855869 -0.22505759 0.04736698 -0.034361575
0003a0 9f a6 6d bd e9 c0 1c 3d 19 07 05 3b 56 bd 3f be
       -0.05802023 0.03826991 0.002029842 -0.1872457
0003b0 41 f3 ce 3c 2c d0 3b 3e 7f 7b 5a 3e 9c 8d 4b be
       0.025262477 0.1834113 0.21336173 -0.19878238
0003c0 35 da 89 bd b6 61 4b be 64 33 49 be c2 c1 37 3e
       -0.06731073 -0.19861493 -0.1964851 0.17945006
0003d0 47 c4 5a 3c 6a f5 03 3e af e8 11 be 27 31 b0 bc
       0.01335246 0.12886587 -0.14248918 -0.021507813
0003e0 83 c6 3d be b9 30 4d be 79 29 3e 3e d7 ad be bd
       -0.18532757 -0.20038117 0.18570508 -0.09310501
0003f0 a4 15 a8 bd f7 2c cc bb 81 87 17 3e 08 d3 0b 3c
       -0.082072526 -0.006230946 0.14797784 0.0085342005

dyna_net.lstm.bias_ih_l0 f4 [64]
000000 79 1e 23 3e c4 06 96 bc df a0 48 be 3a c7 b3 3d
       0.15929593 -0.018313773 -0.19592617 0.08778234
000010 ab 4d 3b 3e 2c a8 24 be 3f 5c fb bc 60 fd 80 3c
       0.18291347 -0.16079777 -0.030683635 0.015745819
000020 b4 a9 d5 3c d4 82 85 3d 49 66 dd bb 24 50 11 bd
       0.026081897 0.06519094 -0.006756578 -0.03547682
000030 18 55 d2 3d 3d 4f fb 3c 56 9c 3f 3e 2f cf fa bc
       0.102701366 0.030677432 0.18711981 -0.030616371
000040 67 f0 20 3e d4 89 05 be 84 23 ad 3e ba 70 1a bd
       0.15716706 -0.13040859 0.3381616 -0.03770516
000050 32 8a 5f 3e 02 a8 77 3e d4 2b 8c bd 5e 6e 44 3e
       0.21830061 0.24185184 -0.06844297 0.19182727
000060 86 73 e7 bb 6d 1d 3e bd ae 19 d8 3d 34 04 21 3e
       -0.007063332 -0.04641478 0.10551773 0.1572426
000070 52 6e ca 3e 8f e0 c4 bd 53 9c 83 3e f2 b5 e7 3d
       0.39537293 -0.09613144 0.25705203 0.11314
000080 17 f3 82 be a7 97 f8 bd 92 f3 d4 3d 1d 36 2d 3b
       -0.25576088 -0.121383004 0.1039802 0.002642996
000090 6d 36 9c bc 8c f2 94 be e5 ed 0b be 5e d1 ce bc
       -0.019068921 -0.290913 -0.13664968 -0.025246318
0000a0 cc af 4c be 1d 9e 50 be 32 d6 41 3e 0f 3e 12 be
       -0.19988936 -0.20372815 0.18929365 -0.14281486
0000b0 ef cd 42 be ca f0 62 3d 03 9a 0e 3e 07 8b 1d 3c
       -0.1902387 0.055405416 0.13925938 0.009615666
0000c0 8f 47 95 3d c3 b7 61 3d 1e 12 d1 3d e3 50 ef 3d
       0.07289039 0.05510689 0.10208534 0.1168535
0000d0 47 79 41 3e 2a ce 01 be df 81 31 3e f7 88 e9 bd
       0.1889392 -0.12676302 0.17334698 -0.11403077
0000e0 c8 6c 9c bd 31 cb 60 bd 2d c6 e2 bd f8 4e 64 3c
       -0.07637936 -0.05488128 -0.11072955 0.013934843
0000f0 14 47 00 3e 1b b5 33 3e e5 e0 73 3e 3e 4c eb bd
       0.12527114 0.17549555 0.23816259 -0.114891514

dyna_net.lstm.bias_hh_l0 f4 [64]
000000 b3 c5 e5 bd 51 ef f0 bd 6a ba d6 3d 02 21 45 3e
       -0.11219349 -0.11764396 0.104847744 0.19250873
000010 7d 25 3f 3e 50 dc 0c 38 8b e7 5b 3e 3d 17 17 be
       0.18666644 3.3583783e-05 0.21475045 -0.14754958
000020 41 63 b6 bd 3a 76 6a bc ab 80 ce bd d0 54 84 3d
       -0.0890565 -0.014310414 -0.10083135 0.06461489
000030 1f d3 f8 3d 08 73 18 be b9 46 1e be 58 a1 30 be
       0.12149643 -0.14887631 -0.15456666 -0.17249048
000040 d0 13 b6 bd d7 27 18 3e 17 5b 8b 3a f7 d6 29 3e
       -0.08890498 0.14858948 0.0010632005 0.16585909
000050 0b 89 87 3e 90 0a 2b bd aa a0 40 3e 4e 4b eb bc
       0.26471743 -0.04175812 0.18811288 -0.028722432
000060 85 a8 e0 3c 25 60 80 3e 5e 3f 46 3e e5 31 01 be
       0.027424106 0.25073352 0.1936011 -0.1261669
000070 e0 10 94 3e 43 59 4c be 97 c2 5b 3d 14 23 d1 bd
       0.28919125 -0.19955926 0.053652372 -0.10211769
000080 6d 76 c6 bd 0d 53 24 39 22 6a dd 3d d5 6d c9 bc
       -0.09690557 0.00015671198 0.10811259 -0.024588505
000090 50 26 51 3e d3 c1 75 be 89 05 bb bd 40 af a6 be
       0.20424771 -0.2399972 -0.09131915 -0.3255558
0000a0 fc 77 dd 3c 4b ac 73 bd cd 73 21 be fa 85 8a bd
       0.027034752 -0.059490483 -0.1576683 -0.06763835
0000b0 9c 42 42 be 7b 56 15 3d 8b 18 c5 3d 52 2c 93 bd
       -0.18970722 0.036459427 0.09623822 -0.07186188
0000c0 cf b5 e8 3d 2d bc ae 3c 10 28 60 3e 8f bd 3a be
       0.11362802 0.021329964 0.21890283 -0.18236373
0000d0 8f 5e ed 3d 90 30 8a bd 62 51 c2 3b fb bc 75 3e
       0.11590301 -0.06747544 0.0059301117 0.23997872
0000e0 07 0c 9e bd f6 e8 cd 3c 11 cc 9a 3d 7d 5a 0c be
       -0.07717138 0.025135498 0.07558454 -0.13706394
0000f0 04 d5 35 3e 22 59 85 3d 7a de eb 3d 65 50 ed 3d
       0.1775704 0.06511141 0.115170434 0.115876

dyna_net.fc1.weight f4 [16, 18]
000000 75 fa 58 bf f0 2c 3d 3f d9 a4 00 3d e2 0e ee 3e
       -0.8475717 0.73896694 0.03140721 0.4649573
000010 eb 32 b3 3c e0 98 c6 be aa 51 08 bf a7 e4 8d bd
       0.021874866 -0.3878851 -0.5324961 -0.069283776
000020 ac b0 8e 3e c7 07 a3 bd a2 df b0 be 33 41 32 3e
       0.27869165 -0.07960468 -0.34545618 0.17407684
000030 6f 7b b3 3e 06 f5 ac 3e b3 60 f6 3e 2b ec 19 bf
       0.3505511 0.33780688 0.4812065 -0.6012599
000040 21 01 38 bc 66 dc 0f 3d 81 bb 89 be 26 4e 34 3e
       -0.011230738 0.035122298 -0.26900867 0.17607936
000050 3b 51 ee bd d4 98 e8 bc 7e f2 1a be a4 9e 01 3e
       -0.11636587 -0.028393187 -0.15131566 0.12658173
000060 f5 58 87 3e bc 37 f5 3b 11 7a b4 bd a8 ad 46 be
       0.26435056 0.0074834507 -0.08812345 -0.19402182
000070 05 02 a8 3d 8d b9 be 3d 81 f7 32 be 26 04 b0 3d
       0.0820351 0.09312735 -0.17477228 0.08594541
000080 5e 13 e7 bc 52 12 70 3e df 1a 7b bd 93 33 7e 3e
       -0.028207477 0.23444489 -0.061304923 0.24824362
000090 1e ca 2c 3f d0 04 4f bf ef f0 be bd cd 49 96 3d
       0.67495906 -0.8086672 -0.09323298 0.07338295
0000a0 45 fc 92 be 0d 6d c8 3e 18 94 c4 3e 31 60 1c 3e
       -0.2870809 0.391457 0.38394237 0.15271069
0000b0 95 37 30 3e 08 be 5b 3d 51 02 6f 3e ea 67 95 be
       0.17208703 0.053648025 0.23340727 -0.29180843
0000c0 96 ca bd bd 04 53 86 be ce c1 04 be 3e 13 ec 3e
       -0.09267156 -0.2623521 -0.12964556 0.4610843
0000d0 06 98 3c 3e 20 26 58 be a6 19 b5 be 80 57 a3 3e
       0.18417367 -0.21108294 -0.3537113 0.31902695
0000e0 bb 30 a2 3e f4 2a c4 3e 0a f7 6e 3d 00 cc f9 bc
       0.31677803 0.3831402 0.058341064 -0.030492783
0000f0 8e 1b fc be a1 6b 8d bd f6 f8 91 3e 8b a5 4b bd
       -0.49239773 -0.06905294 0.28510255 -0.04971842
000100 32 6f c3 3d 76 2e 1e 3e 59 23 cb 3e 8c 45 de bc
       0.09542693 0.15447411 0.39675406 -0.027132772
000110 4e ad 88 3e 33 83 f6 be c1 f3 d7 be 7c 9f b2 3b
       0.2669472 -0.48146972 -0.42178157 0.005451141
000120 33 e3 d8 bd de af 46 be 08 44 d0 bd f8 49 91 3c
       -0.1059021 -0.19403026 -0.10169226 0.017735466
000130 b3 8f 56 3e c7 c5 00 3e cd 26 ee 3d 3f df f6 bd
       0.20953254 0.12575446 0.116284944 -0.120542996
000140 31 b1 9b 3c ed c9 a7 3d fe 31 36 be 2c 4a 3c 3e
       0.01900539 0.08192811 -0.17792508 0.1838767
000150 e9 1e 72 3d dc ea 15 bd 3f 14 3f be ee 0e 11 3e
       0.05911151 -0.036600932 -0.18660067 0.14165851
000160 f9 d5 cd 3d 79 96 34 be 05 d3 bb 3d 14 52 82 bd
       0.10050578 -0.17635526 0.09171108 -0.063633114
000170 6f 06 22 3d 0e 96 d2 be 8c 93 93 3d 9e f4 ce be
       0.039556917 -0.41130108 0.07205877 -0.40421003
000180 83 da 65 be 57 f7 15 3d 7b cd 8d 3e 68 a3 0e be
       -0.22446637 0.036612835 0.27695832 -0.13929522
000190 16 a4 b4 be 38 ad 8f 3d 70 1a 46 be 75 2b 33 bd
       -0.35281438 0.07015461 -0.19346023 -0.043742616
0001a0 a4 00 bf bd eb 45 ac 3e 25 bf 38 3e 37 6e 52 3d
       -0.09326294 0.33647093 0.18041666 0.05137464
0001b0 a3 56 ed bc e9 f3 76 be 8c e3 26 be a6 0c c6 3d
       -0.028971976 -0.24116482 -0.1629774 0.09670381
0001c0 88 35 97 3d 43 8f 1a 3e ac 2c 3b 3e 2c 2d 1d 3e
       0.07383257 0.15093713 0.1827876 0.15349263
0001d0 68 64 f9 3d 3f 4c ce 3d 89 4b 76 bd b9 57 1c be
       0.12177354 0.100731365 -0.06013063 -0.15267839
0001e0 15 f0 9d bd 8b af 37 3e 55 02 89 be 33 e3 80 3e
       -0.07711808 0.17938058 -0.26759592 0.2517334
0001f0 e1 01 ac 3e 1f 9d 3a 3d 06 67 1d 3e f9 78 97 be
       0.33595183 0.04556 0.15371332 -0.29584482
000200 92 48 80 bd 2d a3 d8 3d cc 56 a5 be 16 33 96 3e
       -0.06263842 0.10577998 -0.32292783 0.2933585
000210 d0 bb 0e 3d 7e 78 8e 3e b0 58 2f 3e 10 54 49 3d
       0.03484708 0.27826303 0.17123675 0.049152434
000220 ca 6d 63 3c bb cb ba be 2e 7a ed bd 49 b1 5a 3d
       0.013881156 -0.3648356 -0.115955696 0.05339173
000230 5f 0a 61 be 70 41 cc 3e 3c 6f a4 3e 27 7f c3 3c
       -0.21976613 0.39893675 0.32116115 0.023864342
000240 c2 e6 2b 3e 47 b4 23 3d 1a 59 7a 3e a5 44 d4 bd
       0.16787246 0.039966848 0.24448052 -0.103646554
000250 a9 1c 32 3c fe ae 96 3e f2 0f 76 3e d3 c2 f9 bd
       0.010871091 0.29430383 0.2402952 -0.12195363
000260 c4 09 57 3e fa 98 64 3e bb a8 f7 3e c6 4b 0b be
       0.20999819 0.22323981 0.4837092 -0.13603124
000270 d6 9b 8d 3e bd d1 04 bf 53 bf 37 3e 0d 9a 01 be
       0.27657956 -0.51882535 0.17944078 -0.12656422
000280 2c 0d a7 be 8d a4 f6 be cb 4c f3 3d 09 84 b7 be
       -0.32627237 -0.48172417 0.118798815 -0.35842922
000290 cd 4c 2d 3e 77 9b 7b 3e bc 95 b5 be 93 e1 b0 3e
       0.16923828 0.24571024 -0.354658 0.345471
0002a0 d2 f9 67 3d cf 3e 8b bd 4a 21 33 3e b0 69 48 38
       0.05663473 -0.06799089 0.17493168 4.7782145e-05
0002b0 ff ef 91 3e ab eb 78 be a7 a4 b6 be 15 6c a6 be
       0.28503415 -0.2430865 -0.35672495 -0.32504335
0002c0 2e a3 2d be d9 9d 9b 3e 23 f4 48 3e 68 63 27 bd
       -0.1695678 0.30393866 0.19624381 -0.040866286
0002d0 93 ba 4e be 56 60 49 be e8 0c 33 3e 2d 73 15 bc
       -0.2018836 -0.19665655 0.17485392 -0.009121698
0002e0 ae ee 14 3e fa 6f 26 3e 12 45 ba 3d 11 be 47 3c
       0.14544174 0.16253653 0.09095205 0.012191311
0002f0 08 de cb bc a2 9c d2 bd 3e fc 22 bd d7 74 4b 3d
       -0.024886146 -0.102837816 -0.03979134 0.049671974
000300 6a ad 3d be 4a 92 19 bc 02 a4 38 be 37 bd b9 bd
       -0.18523183 -0.009373257 -0.18031314 -0.09069293
000310 f7 2c 97 bd 4e 6c e4 3d da 5a 1e be 5d 8d 3a bc
       -0.07381623 0.1115347 -0.15464345 -0.011386243
000320 0b 9f 2e be 06 f8 d3 3c 29 e7 13 3e 91 2d 3d be
       -0.17052858 0.025875103 0.1444365 -0.18474413
000330 50 88 c8 3d 59 9f 1e 3e 8d b7 fb 3d bd 28 54 3c
       0.097916245 0.15490474 0.12290869 0.012949166
000340 e8 a6 20 3e fd 3d e5 bd 14 57 39 bd 10 dc af bd
       0.1568867 -0.11193464 -0.04524906 -0.085868955
000350 67 be 9f bb e8 b5 ae bd 9f 59 c9 bd 0e d5 6d bd
       -0.0048749927 -0.085307896 -0.09831547 -0.058064513
000360 01 d3 8b bd 86 22 83 be 53 7c 69 bc 99 96 46 bd
       -0.06827355 -0.25612277 -0.014250833 -0.048483465
000370 aa 04 db bd 7a 5d f7 bd 5d 88 7b bd 09 24 95 bd
       -0.10694249 -0.12078376 -0.061409343 -0.07282264
000380 18 1a 4e be 54 82 5b be c7 57 0a be 63 9a bb bd
       -0.20127141 -0.21436435 -0.13510047 -0.09160306
000390 ba c7 1f 3e 38 ee df bc ba 77 cf bd 51 3d 20 be
       0.15603533 -0.027335271 -0.10130258 -0.1564839
0003a0 82 0b 0a 3b 02 45 2e be 11 9c 42 be 47 bd 18 bd
       0.0021063988 -0.17018512 -0.19004847 -0.037289884
0003b0 be e9 f2 bd 93 a3 d6 bb 66 9c 8d 3d fe 51 25 be
       -0.11860989 -0.0065502613 0.06914596 -0.16144559
0003c0 d7 68 e4 3d ac d7 47 be c8 cb 9c bd 5a f7 62 be
       0.11152809 -0.19515866 -0.07656056 -0.2216467
0003d0 66 a2 f7 bd 3a c1 de 3d 29 a1 00 3e 0a 0f 1e 3e
       -0.12091522 0.10876699 0.12561478 0.15435424
0003e0 71 bc 06 be 2f 2d 9f bd a0 c6 a1 bd 09 11 dd bc
       -0.13157822 -0.0777229 -0.07899213 -0.026985662
0003f0 69 f4 4a 3e 1c dd d6 be 3a 9b 83 3d 38 41 d2 3c
       0.19819798 -0.41965568 0.064260915 0.025665864

dyna_net.fc1.bias f4 [16]
000000 17 b7 a6 be 47 24 06 be 34 a5 94 be 03 c3 3d be
       -0.3256156 -0.13099776 -0.2903229 -0.18531422
000010 c0 6e 0c be c4 fb 46 be 86 ae 14 3d 73 b5 f9 bc
       -0.13714123 -0.19431978 0.03629925 -0.03048203
000020 05 83 9a 3e af c4 e2 be 6e 2e 89 bd bc 2e 65 be
       0.30178085 -0.44290683 -0.06698309 -0.22381109
000030 7b 5e 06 be 58 40 6d 3c 1c 5a 72 bd 45 ab 77 be
       -0.13121979 0.014480673 -0.059167966 -0.24186428

dyna_net.fc2.weight f4 [16, 16]
000000 ca 0f 01 3e e0 a3 57 be ff 39 e1 3d 63 81 a3 bd
       0.1260368 -0.21058607 0.1099739 -0.07983663
000010 f0 b5 d1 3c 7c c9 85 bd ff 1d 83 be 88 db 96 bd
       0.02559945 -0.06532571 -0.25608823 -0.07366091
000020 03 4a 07 bc 1c 05 01 3e b4 51 65 3e d5 3c f8 bd
       -0.008257392 0.12599605 0.22394449 -0.12120978
000030 fb 1a 04 be 27 1a d3 bc 5c ae 84 bc d1 c1 79 3d
       -0.12900917 -0.025769306 -0.016196422 0.060975853
000040 d0 ca c0 3e 24 d9 bb bd bb f8 a8 3e 30 3d e5 3d
       0.37654734 -0.09172276 0.33002266 0.11193311
000050 fc 80 8e bd 2e fe 7b be 9a e4 6d be 05 ef 1c 3d
       -0.069581956 -0.2460868 -0.23231736 0.038313884
000060 1a b8 f0 bd 9f c4 3b 3e 10 76 9b bd 94 1e 65 be
       -0.117538646 0.18336724 -0.07590878 -0.22374946
000070 fb 41 34 be 16 95 6c 3e 15 5e 4c 3e fb 38 3b be
       -0.17603295 0.23103747 0.19957764 -0.18283455
000080 ac 01 98 3d 50 0a bf 3d 78 dd 09 be 39 9d 0d 3e
       0.07422194 0.09328139 -0.1346339 0.13829507
000090 d4 4a 4f be 08 b7 ea bd df 88 9c bd d5 43 d2 bc
       -0.20243388 -0.11460692 -0.076432936 -0.02566711
0000a0 fe ae aa bd 7e b9 df 3d c3 ac 11 be 94 d9 21 3d
       -0.08334158 0.10924052 -0.1422606 0.03951414
0000b0 82 56 40 3e 82 f1 c5 bd de 71 67 be d9 96 fb 3d
       0.18783 -0.096652046 -0.2260203 0.12284631
0000c0 6a fd 91 be 57 ee 2f be fe 57 ea 3d 38 69 57 3e
       -0.28513652 -0.17180763 0.114425644 0.21036232
0000d0 63 9c 55 3e 1e a3 ce 3d d3 cb 49 3e b2 a5 75 3e
       0.20860438 0.10089706 0.19706659 0.23988989
0000e0 9b 59 80 3e 4d f9 9b bd 85 8c 4a be 57 e2 ef 3c
       0.25068364 -0.0761591 -0.19780166 0.029282732
0000f0 5c 2f af bd 25 9c 22 be 19 00 93 3e d4 46 81 be
       -0.08553955 -0.15879877 0.28711012 -0.2524935
000100 54 64 aa bd 1f 6f b6 3c 3b 78 8b 3e 3e 42 e3 3d
       -0.08319917 0.022269784 0.27240166 0.11096619
000110 1c 93 ba bc 0a 45 e2 bd 73 29 8b 3e b6 d1 92 3e
       -0.022775225 -0.110483244 0.2718006 0.28675622
000120 0a c4 2f 3e 1a 4d b3 3e c9 65 49 be 69 25 17 3e
       0.17164627 0.3501976 -0.19667734 0.14760365
000130 7b 82 49 3e ce e2 c3 3d 1f a7 84 3e af ab 9c bd
       0.1967868 0.09564744 0.25908753 -0.076499335
000140 05 19 86 be 93 10 64 3e 09 5d 63 be 41 e4 57 be
       -0.26190963 0.22271948 -0.22203459 -0.21083166
000150 e0 10 01 3e 62 da 9f 3e 9c 6b 02 be 19 b6 35 3d
       0.12604094 0.312213 -0.12736362 0.044363115
000160 63 01 0b 3d f4 7b a7 bc 20 f6 0c bc 8a 0d 16 bd
       0.03393687 -0.020444848 -0.008603603 -0.036634006
000170 7a ec d6 39 a3 d5 7d be 17 17 18 be 88 bb 3b 3e
       0.0004099345 -0.24788527 -0.14852558 0.18333256
000180 84 fe 69 bd f5 f2 6d bb 0a 20 05 be 77 e7 9c bd
       -0.05712749 -0.0036308144 -0.13000503 -0.07661336
000190 50 a0 3f be dc 2c a6 bd 37 5e 0f 3d 55 c7 e0 3c
       -0.18713498 -0.08114025 0.03500196 0.027438799
0001a0 da a2 62 be 20 d0 83 be 93 d4 2d be 3f f7 17 be
       -0.22132435 -0.25744724 -0.16975622 -0.1484041
0001b0 e3 91 1f 3c 31 7a bd 3d 6f 87 04 be 4f ed 1c 3d
       0.009739372 0.09251822 -0.12942289 0.038312253
0001c0 c3 84 fd bd e1 c7 3e 3d 2c af 8e 3d 81 a6 22 3d
       -0.12378838 0.046577338 0.06967005 0.03970957
0001d0 d9 4d 49 3e e3 94 21 be 45 a2 4b be c0 24 38 3d
       0.19658603 -0.15779452 -0.1988612 0.044956923
0001e0 91 2e 1a 3e d2 62 1e bd 14 c9 22 be 95 b0 1a be
       0.15056826 -0.03866846 -0.15897018 -0.15106423
0001f0 90 01 ec bd da dc 34 bd c1 98 8c bb 70 83 01 3d
       -0.115237355 -0.044155933 -0.0042906706 0.03161949
000200 f1 b7 7a bd 2e 35 2e be 95 5d 8f 3e 70 aa 70 3e
       -0.061210576 -0.17012474 0.28001085 0.23502517
000210 d3 3e be 3c bf 73 7a be fb 46 6e 3c 40 98 21 bd
       0.023223316 -0.24458216 0.01454329 -0.039451838
000220 55 33 dd 3e ff b9 d5 3e 6a 4f 14 be b4 87 80 bd
       0.43203226 0.41743466 -0.14483419 -0.06275883
000230 e3 64 fd 3c 0d 19 7a 3d f4 70 83 3e 70 3c e5 be
       0.030931896 0.061059047 0.25672114 -0.44772673
000240 43 4a fa bc 84 ef 2b 3d b2 93 82 be 86 aa 7d 3d
       -0.030552989 0.041976467 -0.25503308 0.061930202
000250 37 ee 54 3e 13 35 36 3e ac 37 82 be fe 56 9f be
       0.20793997 0.17793684 -0.254331 -0.31121057
000260 69 1f 29 bd cc 07 3e 3c 74 40 7a 3d da 4c 5c ba
       -0.04128972 0.011598539 0.061096624 -0.0008403786
000270 60 bb 32 be 2a 69 99 3d 38 a4 14 3d 54 a6 b0 3c
       -0.1745429 0.074907616 0.036289424 0.021563686
000280 d3 19 c1 3e 47 6f 97 bc ac 77 20 3e d6 1e 76 3e
       0.37715015 -0.018485678 0.15670651 0.240352
000290 d6 d9 f7 bd a5 4d b5 be b8 8f 97 be cf da 5f bc
       -0.12102096 -0.354108 -0.29601836 -0.013663008
0002a0 83 14 86 3e 4c 32 5e 3e bd 1d 8e 3d 06 e3 bc bd
       0.26187524 0.21698874 0.06939266 -0.09222989
0002b0 4f ef 8e bc 4c f8 1b be f7 7b 03 bb 40 f7 6a be
       -0.017448096 -0.15231436 -0.0020062902 -0.22945881
0002c0 03 10 08 3e b6 89 fa 3d d3 1a 8a be 09 ea 27 be
       0.13287358 0.122332975 -0.2697359 -0.16397871
0002d0 b8 3f d0 bd 87 bd 74 3e 88 f9 f7 bc 30 95 62 be
       -0.101684034 0.23900424 -0.030270353 -0.22127223
0002e0 31 94 3c be e3 da 09 bd 4b c8 d6 bd 7c 56 ac bd
       -0.18415906 -0.033656012 -0.104874216 -0.08414933
0002f0 08 45 08 be 4f 09 0b be ca c0 9f 3d b5 39 07 bc
       -0.13307583 -0.1357777 0.078004435 -0.0082535045
000300 c4 b6 bd 3e ae 54 18 3e 54 4b a7 bd 0d 09 74 3e
       0.37053502 0.14876053 -0.081686646 0.23831578
000310 77 d4 f5 bd 54 45 b2 bc f6 36 62 3d 6d 2d e4 bd
       -0.12003415 -0.021761574 0.055228196 -0.11141477
000320 36 ba 93 3d 28 01 cf 3d 7b 3d ef bd 69 5f c1 3d
       0.07213251 0.101076424 -0.11681648 0.09442026
000330 df 5d 25 3d b4 14 b1 3d 5e cd 9a bd 03 85 7a be
       0.040372726 0.08646527 -0.07558702 -0.24464802
000340 21 e7 e4 be 38 70 ef 3d 40 1c 44 3e 7a 4d 57 be
       -0.44707587 0.11691326 0.19151402 -0.21025649
000350 90 0e 2c be 58 a8 0d bd a1 f1 63 3e 86 0f 81 3e
       -0.1680243 -0.034584373 0.22260143 0.25207156
000360 05 55 92 be ca 29 56 3e e2 05 e3 3c 50 5c 8c bd
       -0.2858049 0.20914379 0.027712766 -0.06853545
000370 78 8c ba 3d 12 5c d0 3d d3 41 e9 bc cd c3 4a bd
       0.091088235 0.10173811 -0.02847377 -0.049503136
000380 0b 05 65 be 1f cc 85 3d 73 b4 95 bd ba 8f 91 be
       -0.22365205 0.06533074 -0.073098086 -0.28429967
000390 39 55 40 be c4 af 68 3e bf 59 a0 bd 97 af 38 3e
       -0.1878251 0.227233 -0.07829618 0.18035732
0003a0 9e 66 b9 be 55 f2 c8 3d e2 be 12 be e8 db bb bd
       -0.36211103 0.09811846 -0.14330629 -0.09172803
0003b0 34 e3 34 3e 11 a7 42 be 9d 7c 66 bb 4a b7 bc 3d
       0.17664796 -0.19009043 -0.003516949 0.09214647
0003c0 ef 57 75 3c d3 7c 17 3e 9e 70 0d bd 77 d2 75 bd
       0.014974578 0.1479371 -0.03453123 -0.060015168
0003d0 e1 f8 40 be 61 a4 98 bc 40 44 26 3d 33 ad 32 3d
       -0.1884494 -0.01863307 0.040592432 0.043622207
0003e0 be 28 44 be 88 9d 4c be 85 fa 8c 3d eb ab 5b 3d
       -0.19156167 -0.19981968 0.0688372 0.05363075
0003f0 41 15 74 bd 1d 2e 10 3d 90 04 3f bd f1 09 95 3e
       -0.05959058 0.035200227 -0.04663521 0.29109147

dyna_net.fc2.bias f4 [16]
000000 44 99 dd bc b5 a5 97 bd 81 28 b3 3d 81 62 26 be
       -0.027050622 -0.07404653 0.0874796 -0.16248514
000010 f3 26 2f be 25 51 37 bc d3 22 21 3e 7e e8 8a 3d
       -0.17104702 -0.01118878 0.1573594 0.067826256
000020 07 3d 25 be a6 3a 2e 3d bf bb 9d bd f6 fd d5 3d
       -0.16136561 0.0425364 -0.07701825 0.1044883
000030 0b 8a 4a bd 59 c1 48 3e 8c 90 79 3e 1b 1e 93 bc
       -0.049448054 0.19605006 0.24371547 -0.017958691
