pretrained_weights.pt (torch, 17655 bytes, 18 tensors)

pred_net.fc1.weight f4 [6, 6]
00000000: 2075 1ebd 3e62 973e 15ae 803b 6370 fd3b
00000010: 10af febc 7838 a93d 0726 05be 9f7e ac3e
00000020: a765 0d3f e123 6c3e 91de ed3e c35c 01bf
00000030: 1a75 34be d26a dabd 5e15 45bf 92f8 923e
00000040: 9297 363f bb36 1d3f 4123 c2be 0f55 5a3e
00000050: d98f 3cbf c1b4 dabe 26d3 f33c ac7f 2f3f
00000060: d35e ce39 fa74 943e 80e0 9d3e a23c 683e
00000070: 77eb c93e 892e a0bc b6e9 67be 29e7 93bd
00000080: 85a6 0cbf aa8b e43e e42b 803e 2a62 503d
-0.038685918 0.2956714 0.003927002 0.007734345 -0.031089336 0.08262724 -0.13002788 0.33690354
0.55233234 0.23060562 0.46458867 -0.5053217 -0.17622796 -0.106649056 -0.7698573 0.2870527
0.7132503 0.6141164 -0.37917522 0.2132151 -0.73656994 -0.4271603 0.02976377 0.68554187
0.0003936203 0.28995496 0.30835342 0.2267938 0.39437458 -0.01955344 -0.22647747 -0.07221825
-0.5494159 0.44637805 0.25033486 0.050874867

pred_net.fc1.bias f4 [6]
00000000: 2b50 e0be f12b af3a bc35 a5bf 59e9 c33d
00000010: 953b de3e 2a19 c03f
-0.43811163 0.0013364536 -1.2907023 0.09565992 0.43404832 1.500768

pred_net.fc2.weight f4 [53, 6]
00000000: 1a85 91be 68c2 3e3e a833 c6be 9229 f13d
00000010: 15af 1ebe b751 9f3e 52c8 ee3c 6026 883d
00000020: eb73 80be eb15 b73d 3fc5 503e 5e16 a33e
00000030: 84a2 dbbc ba92 04bf 1063 99be 456b b7be
00000040: 82d0 05bf 1d21 6cbf cfd3 7d3d 07c7 05bf
00000050: 52dc 18be f2e0 0f3d f252 dfbc 7282 03bf
00000060: f392 68be 1e37 b7be ceee 9fbd 1ef0 d03d
00000070: bbeb 03be 201e 36bf a25d 83be 2344 f53d
00000080: 5c8a 623e d6a8 9fbe a2d2 8b3c baf4 43bf
00000090: 29e4 b0be 7ee3 9dbe 0ba2 56bc c806 73bd
000000a0: eb05 19bf 5ced b2be b5b4 b33e ee37 d4bc
000000b0: c153 0d3d 3be5 a43e 55ff b2be 4ec6 42be
000000c0: 9161 c9bb 0e8c 51bd 1d75 003e 12a8 b93d
000000d0: 74eb aebe 1503 86be 3b05 a4be 15b8 10bf
000000e0: 8382 a9be 760e 403e f04b 0ebf 5513 82be
000000f0: 6088 cebd ea7b 91be 2cc2 353e 7772 bebe
00000100: e12f b8be 5086 9abe bef5 b4bd e39a 793d
00000110: 4fdb b23d fd74 39bd 35d1 43be 3322 1abf
00000120: 9e5a f6bc 2154 2cbe 58a9 e5bd 2b6d aabe
00000130: 6662 4fbd 5855 06bf 44df 803e 0c13 cfbe
00000140: cca3 5b3e c47b 7ebd abd4 fc3d fa47 b1be
00000150: e5bb 96be 0e6b fbbe 091a e93d cb85 b33e
00000160: 76fd 15be 8cec 943d 1695 1bbc da55 39bc
00000170: 73cf 8a3e 6046 743e 7582 19be bcc2 01be
00000180: 8c0b 293e 805c 05be 3ef1 ed3c 7815 2c3d
00000190: ae7c 93be 48ae 9dbe 694e 2a3e 917b 893e
000001a0: c06a a3bd 984c b43e ee7e cabe 7834 0abd
000001b0: 6197 a33e c227 8cbe 0d38 51be 9f31 3abe
000001c0: d200 7e3d d583 36be 0d40 6dbe 8ffc 043d
000001d0: 61d0 9b3e 2301 253d 467c 59be b45b bd3c
000001e0: b43d 31be c309 3c3d 96ea b73e 81ad 4ebe
000001f0: 11a6 983d 5363 06bd 2054 f7bc 157f 90bd
00000200: a4cc 1e3d 041e d73e 0d03 90be 0d38 873e
00000210: ba0f 28be 6505 0d3e 8c75 23be 87fb 8d3e
00000220: 7a8d 36be a683 493d 8f5b d7bc 2c5b c23d
00000230: e0d2 0fbd 06df 08be 63b0 c4bc 561f f93d
00000240: b7f7 a53e 55d0 643e ea67 fd3e e010 c43d
00000250: 1645 883e 3278 85be 6a49 833e f9ee 043d
00000260: e182 0d3d 70d4 26be 8715 9c3e 03d1 98be
00000270: f15f aebd dfd2 6b3e 3940 16be eef2 9f3e
00000280: 827a a9be 4296 fd3e 1bc2 cebd 9226 9bbe
00000290: f374 54be 265b 083f 58d1 82bd 347a 2c3f
000002a0: 4f11 8dbe 3740 a93d 31db 103f dd50 943e
000002b0: 3b22 11be f460 2f3f f5ce ae3c 6cca 4e3e
000002c0: f531 3e3f 32b0 313f e54b ddbd f5d4 5e3f
000002d0: e6a9 833d 6b5d 1a3e 034e b7bd 5d5e 1b3e
000002e0: 823b ed3d 85fe 553f ea60 963e cd7e 913e
000002f0: b92a b43e 9acd e13e 4d8a 7d3e 7445 973f
00000300: 44d9 033e 1b5c 063f ee8b 773e 3f0b 9e3d
00000310: 766e 283f 710c 8f3f 7c86 86be e0f8 0abe
00000320: ac73 a83d 698e 7c3e 8219 d5bd 2b3d 8e3b
00000330: 3676 dbbc 4582 963d dc1e 233d 2b27 00be
00000340: e6ff bb3e 6bad 393e e4f0 c83c 7f6e 443f
00000350: 8419 ecbe b39f 87be bafd 0f3f 441f 683f
00000360: 13ce 1c3d 86b6 3d3f 627b e7be 9a60 c5be
00000370: 5464 263f d889 253f fa47 853e bbea 1d3f
00000380: d5a7 403e 7e29 703b 020f 093f e595 b53e
00000390: 07d5 4ebb 0977 ef3e 6e09 94be 45a4 d1be
000003a0: c5a0 563e 756a 323f 8039 93bd 1d0a 8c3e
000003b0: 9c5b f3bd 1fd7 98bb 39c8 b23d 6b94 cb3e
000003c0: b05c 2bbe 330b 9c3e 5ad1 143d a55c 57bc
000003d0: dacb 6c3e 45ad cd3e ce87 5dbe 4e73 9e3e
000003e0: df3c 80bc 0a01 c4bd 053c 573e 42c6 893e
000003f0: 926a eb3d f237 843e f586 943e bcfa 953d
-0.2842186 0.18628848 -0.38711286 0.11775507 -0.15496476 0.3111703 0.029148255 0.066479445
-0.25088438 0.089397274 0.20387743 0.31853002 -0.026810892 -0.51786387 -0.2995839 -0.35824028
-0.5227128 -0.92238027 0.061969575 -0.52256817 -0.14927796 0.035126634 -0.027261231 -0.5137092
-0.22712307 -0.3578424 -0.0780922 0.10202049 -0.12882893 -0.7113972 -0.25657374 0.11975887
0.22123092 -0.311835 0.017068211 -0.765453 -0.34549072 -0.30837625 -0.0131001575 -0.05933264
-0.59774655 -0.34946716 0.35098806 -0.025905576 0.034503702 0.3220614 -0.34960428 -0.1902096
-0.006145664 -0.051158957 0.12544675 0.0906526 -0.3416401 -0.26174226 -0.3203524 -0.56530887
-0.33107385 0.18755516 -0.5558462 -0.25405374 -0.10084605 -0.2841485 0.17749852 -0.37196705
-0.3597403 -0.30180597 -0.08835934 0.060938727 0.08733236 -0.045277584 -0.19122775 -0.60208434
-0.030072507 -0.16828968 -0.112139404 -0.33286414 -0.05063095 -0.52473974 0.25170338 -0.4044422
0.21449202 -0.06212975 0.12345251 -0.34625226 -0.29440227 -0.49105114 0.11381919 0.35063013
-0.14647469 0.0727168 -0.009495994 -0.0113119725 0.27111396 0.23854971 -0.14991172 -0.12671942
0.16508311 -0.13023567 0.029045697 0.04201266 -0.2880606 -0.3079703 0.16631474 0.26852086
-0.07979345 0.35214686 -0.39549965 -0.033741444 0.3195143 -0.27374083 -0.20431538 -0.18182991
0.0620125 -0.17823727 -0.23168965 0.03246742 0.30432418 0.040284287 -0.21238813 0.023115017
-0.17308694 0.045907747 0.35921162 -0.20183374 0.0745355 -0.032809567 -0.030191481 -0.07055489
0.03876938 0.42015088 -0.28127328 0.2640995 -0.16412249 0.13771589 -0.1596281 0.27730963
-0.17827407 0.049197815 -0.026288776 0.09490046 -0.035113215 -0.13366327 -0.024009889 0.1216418
0.32415554 0.22345097 0.49493343 0.09573531 0.26615208 -0.26068264 0.25641948 0.032454465
0.034548644 -0.16291976 0.30485174 -0.29846963 -0.08514393 0.2302966 -0.14672936 0.31240028
-0.3310128 0.495287 -0.100956164 -0.30302864 -0.20747738 0.5326408 -0.063875854 0.6737397
-0.27552268 0.08264201 0.5658446 0.28967944 -0.14173214 0.68507314 0.02133892 0.20194405
0.7429498 0.6940948 -0.10805491 0.87043697 0.0642889 0.15074699 -0.089504264 0.15172715
0.11583616 0.8359149 0.29370815 0.28417054 0.35188845 0.44102174 0.24759789 1.181807
0.12875849 0.5248429 0.24174473 0.07716989 0.6579355 1.1175672 -0.26274478 -0.13571501
0.08225188 0.246637 -0.10405256 0.004340788 -0.026789766 0.07349066 0.03982435 -0.12514941
0.36718673 0.1813256 0.024528928 0.76731104 -0.46113217 -0.26489028 0.5624653 0.9067271
0.038282465 0.74106634 -0.4521132 -0.38550264 0.6499684 0.6466346 0.26031476 0.61686295
0.18814023 0.0036645825 0.53538525 0.35465923 -0.003156008 0.46770504 -0.28913444 -0.4094564
0.20959766 0.6969369 -0.07188702 0.27351466 -0.118827075 -0.0046643163 0.08729596 0.3976167
-0.16734576 0.30477294 0.036332466 -0.013144647 0.23124638 0.40171257 -0.21633837 0.30947345
-0.015654026 -0.09570511 0.2101899 0.2690907 0.11494936 0.25823933 0.29009214 0.073232144

pred_net.fc2.bias f4 [53]
00000000: 2168 d03c cd65 0fbe f0af 44bb 3fc2 d9be
00000010: 7b47 7fbe 43ff 03bf 7b69 a8be 2572 2fbf
00000020: a62f 1ebf 3175 25be 614d b5be ea72 6bbe
00000030: 09e3 49be e15f 9dbe c62a c1be dd90 00bf
00000040: 24b8 8bbd fba6 02bf cd71 44be 9bae d4be
00000050: 8237 e6be e449 66be d86d e9bd 3866 a8be
00000060: 7d54 f93d 77d3 5a3e 56a7 cebd fbed f33e
00000070: 5ceb ca3e cbd6 c73d c629 043f 28c7 a53f
00000080: 478b ed3f 626c c3bd 2a13 f63d 8a45 4f3f
00000090: 3cdc d33e ac38 d93e 41f9 773e 7c93 ee3e
000000a0: 9910 983d 2f7d 213e 1a28 433e 7770 433d
000000b0: 487a 613d 3845 36be 6af5 49bd ecbb ee3d
000000c0: 5adf 8d3d e212 5ebe d9c6 82be ad19 2ebe
000000d0: d5cd a9be
0.025440278 -0.14003678 -0.0030012093 -0.4253101 -0.24929611 -0.51561373 -0.32892975 -0.68533546
-0.61791456 -0.16157986 -0.35410598 -0.22993055 -0.19715513 -0.30737212 -0.37727946 -0.50221044
-0.068222314 -0.5103604 -0.19184037 -0.41539463 -0.44964224 -0.22489125 -0.11397904 -0.32890487
0.12174318 0.2136973 -0.100905105 0.47642502 0.3963269 0.097577654 0.5162624 1.2951403
1.8558129 -0.09542157 0.12015374 0.80965483 0.41378963 0.4242605 0.24216177 0.46596897
0.07425041 0.1577041 0.19058266 0.047714677 0.055048257 -0.17799842 -0.04930631 0.11656937
0.069273666 -0.2168689 -0.25542334 -0.17001982 -0.3316485

dyna_net.lstm.weight_ih_l0 f4 [64, 6]
00000000: 0525 e73c 3537 493e 132d f1bc c043 38be
00000010: 995f f03d 38c9 493b d792 7abd 3caf 36be
00000020: b33f 503e 468f b8bd 4ed9 e5bd 5692 6d3d
00000030: e978 b93c 55db 9f3d 356c dcbd 2603 313e
00000040: 7e74 01be 3530 23be 3ef0 a43d 0ead f7bd
00000050: e74c e7bc c4a7 553e 8af3 5bbe 2f68 9a3d
00000060: 906c 1a3d 585d af3d 224c 51be f71c afbd
00000070: 0a9c 12bc 33e7 3cbe dd12 063e 5450 22bd
00000080: 2be0 013d 319b f4bd 078a 013e baa3 c7bc
00000090: 6585 4ebe 5ac8 03be 6bdc 233d 4003 11bc
000000a0: 6eb7 2b3e a256 5ebd 0d1c 18bd 6427 f1bd
000000b0: 2d53 5cbe 154c 1e3e b4a4 f03d 6432 45be
000000c0: 243d 5a3e 6fcd 3ebe 11a9 133e a3ea 2cbe
000000d0: eb19 c53d e73e 053e b1ff 933d 0e4c d23d
000000e0: e892 213e 52ea 6a3c 0b11 203e e86e 4dbe
000000f0: 8322 c83d 2ad0 51be 9bcd f0bb eaca 17be
00000100: 8efa 5b3d 8341 2e3d f068 8e3d 761d 05be
00000110: 4754 ae3d de94 3ebd 3cb6 42bd 2e5a 7f3d
00000120: 5935 4dbe 68d8 63bd ece2 ad3d 8f83 f63d
00000130: d69f 59be 7c8a 9abd 28ef 3cbd 44b2 14be
00000140: 2458 843d 9ce9 e73d 884e dbbb d045 40be
00000150: 83b6 163d ef31 2dbe 4dd2 523e 6f11 f8bc
00000160: ad16 3dbe a081 98bc 2ded 3ebe 88dd 37be
00000170: 893d bbbd bc5e 45be 4f27 0fbd ac0d 5bbe
00000180: c0cc 02be 121a 053e fa9a afbd d4e5 eebd
00000190: 71dd 94bd 7076 9fbb 5793 a13c c855 5a3e
000001a0: 2900 a03d bf0b 9f3d 9ca0 2dbe 1c84 573c
000001b0: df8c d43d 2b98 46be c429 59be 6778 2dbe
000001c0: 6849 2abe 8fef 49be 91c8 3dbe 1ea6 3fb9
000001d0: 5184 3fbe c233 a33d 6ede 543e d3cc edbd
000001e0: 317f 35be feeb 1c3e 2439 363e 6f02 8bbb
000001f0: 7a4b 5b3e aee4 413e a734 cf3c 5da8 21be
00000200: 3c0a ddbb 18eb 54be e338 25be a23d 01bd
00000210: c410 1a3e 7290 23be 06b8 f03d 66ca cfbd
00000220: 19ba 50bb 7bf6 193e d5cc a3bd f494 093e
00000230: e533 7c3d 0cb7 203e 9c85 003d 8cab 30be
00000240: 3d1f 15be 7350 d5bd 0de2 6e3e 3da7 ba3d
00000250: ec20 02be 7488 c63d 1093 e73c 774c f8bd
00000260: c823 123d 48c2 56bc a618 33be 635f aebd
00000270: 0d89 8f3c aefa 12be 5844 a93b ff00 11be
00000280: 2af9 853e 5ca7 97bd d1ea 15bd cae2 52be
00000290: 74be af3c 215f 9dbd 4327 babd 603b b03d
000002a0: 9a98 823d 27fe f3bd b089 debd 1f53 d1bd
000002b0: 5aad 233e 9913 0dbe af38 3fbd b9ec b9bd
000002c0: eb72 14be 6d43 3a3d 174d 25be b87b 9dbc
000002d0: dc87 e03c 1395 c53c 66eb f5bd acac 9abd
000002e0: a5a0 0bbe 70a0 403e dd5b 973c b626 493e
000002f0: 64ac f13d de95 f3bc 5284 33be 91d3 7cbd
00000300: 2b9f ef3d c0be 1c3e 48c7 ccbd ff17 ce3c
00000310: 412d 193e 52bb 4d3d 8482 cd3d 3eca 443e
00000320: bd9b 1f3e 4400 d93d 9dd1 fa3d 2c35 893c
00000330: f3cd 80bd f89a f13d 6ad0 083e 093e a23d
00000340: 1d65 273e 10b1 763d 876b 513c 50bf 163e
00000350: 52c6 fa3d d2a0 2c3e 9a31 a53c 727e c23d
00000360: 4e32 fb3d 4028 533e dab6 02be e1fe 1abd
00000370: e38b 9f3d 2021 79bd ad21 6bbe f2fb 6dbc
00000380: 7a6e fabd d86b 203d b874 123d 08df 8e3d
00000390: a2c8 e83d 1c1c 05be 8a1b 8abd 4375 b5bc
000003a0: 6667 99bd 372d 9ebd 795a 23bd 6dae cdbd
000003b0: dacb f7bd eae2 b9bd d075 683d d120 0cbe
000003c0: 8a99 3fbd 56d6 193e e391 4d3d 799b 393c
000003d0: f4f9 1cbe 2ebd 48be 0e03 213e 0020 d1bc
000003e0: 18cd cabd 712c f2bd 29a2 3b3e 65ae 1a3e
000003f0: 5bd7 f03d 30ef 1b3e 6235 80bd e2b0 63bc
0.028215894 0.19649966 -0.029440438 -0.17994595 0.11736984 0.0030790102 -0.061175194 -0.17840284
0.203368 -0.09011702 -0.11223088 0.058000885 0.022640662 0.07805506 -0.10762826 0.17286357
-0.12642094 -0.15936358 0.08053635 -0.120935544 -0.028234912 0.20864779 -0.21479622 0.07539403
0.03770119 0.08562726 -0.20439199 -0.085504465 -0.008948335 -0.1844757 0.13093133 -0.039627388
0.031707924 -0.11943663 0.1265031 -0.024370063 -0.20168073 -0.12869397 0.04000513 -0.0088508725
0.16769192 -0.05428184 -0.037136126 -0.11775091 -0.21516104 0.1545871 0.11750165 -0.19257504
0.21312386 -0.18633054 0.14419962 -0.16886382 0.09624084 0.13012277 0.07226504 0.102684125
0.15778697 0.014338093 0.15631501 -0.20061839 0.097722076 -0.20489565 -0.007348729 -0.148235
0.053705744 0.042542946 0.06953609 -0.1299952 0.085121684 -0.04652869 -0.047537073 0.06234186
-0.20039882 -0.055626303 0.084905475 0.120368116 -0.21252379 -0.07545945 -0.046126515 -0.14521128
0.06462124 0.11323854 -0.0066927113 -0.18776631 0.03679515 -0.1691358 0.20588036 -0.03028175
-0.18465681 -0.018616498 -0.18645163 -0.17955601 -0.09142596 -0.1927442 -0.034949597 -0.21391934
-0.12773418 0.12998226 -0.08574481 -0.1166493 -0.07268799 -0.004866414 0.019723577 0.21321785
0.078125305 0.07765912 -0.16955799 0.013154056 0.103784315 -0.19393985 -0.21207339 -0.16940461
-0.16629565 -0.1972029 -0.18533541 -0.00018277063 -0.18702818 0.079688564 0.20787975 -0.11611333
-0.17724301 0.15324399 0.17795235 -0.0042422335 0.21415511 0.1893489 0.025293661 -0.15786882
-0.006745605 -0.20792806 -0.16134982 -0.03155292 0.15045458 -0.1597307 0.1175385 -0.10146026
-0.0031849204 0.15035431 -0.07998053 0.13435727 0.061572928 0.15694827 0.03137742 -0.1725294
-0.14562698 -0.10415735 0.23328419 0.091139294 -0.12707871 0.09693995 0.028268367 -0.121239595
0.035678655 -0.013107844 -0.17489871 -0.08514287 0.017521406 -0.14353439 0.005165618 -0.14160536
0.2616666 -0.07404968 -0.03660089 -0.20594326 0.02145312 -0.0768416 -0.0908952 0.08605075
0.06376763 -0.1191371 -0.108661056 -0.10220932 0.15984097 -0.13777007 -0.046684917 -0.090783544
-0.14496963 0.04547446 -0.16142689 -0.019224033 0.027408533 0.024118936 -0.12007789 -0.07552466
-0.136355 0.18811202 0.018476421 0.19643673 0.11800459 -0.029734548 -0.17530945 -0.061725203
0.11700281 0.1530714 -0.099989474 0.025157927 0.14958669 0.05022747 0.100346595 0.19217774
0.15586753 0.10595754 0.12247012 0.016748987 -0.06289282 0.11797136 0.13360754 0.079219885
0.16347165 0.060227454 0.012781984 0.14721417 0.12244858 0.16858223 0.020165253 0.09496774
0.12265454 0.20620823 -0.12765065 -0.037840728 0.07790353 -0.060822606 -0.22962065 -0.0145254005
-0.12228103 0.039165348 0.035755843 0.069761336 0.11366393 -0.12999004 -0.06743534 -0.022150641
-0.07490425 -0.07723468 -0.039881203 -0.10043035 -0.120994285 -0.090764835 0.05675298 -0.13684393
-0.046777286 0.15023169 0.050187957 0.0113285715 -0.15329725 -0.19603416 0.15723822 -0.025527954
-0.099024 -0.11824883 0.18323578 0.15105589 0.11759826 0.15227962 -0.06260182 -0.013897153

dyna_net.lstm.weight_hh_l0 f4 [64, 16]
00000000: bfc7 1a3e f5d3 67bd 6075 24be c87b f63c
00000010: ddce 6fbd 396f c7bd d947 6cbd 148f 243e
00000020: 33ca 24bd e5bf 4dbe 86c7 66bd 8017 ee3c
00000030: 2777 cfbd ce1a 2abe fdad de3d 5138 d93c
00000040: ea18 1f3e 6175 883d 0ffe 1b3c 8fe1 753c
00000050: 94fb 263e 07e1 94bd ca13 24be cf87 0ebe
00000060: 50ce e53d e6a7 153a 8601 35bd 730c 353d
00000070: 723a 1ebd b6f4 4e3e 2245 87bd dd7e 213e
00000080: 5ca1 fdbd b067 c9bb e1e0 083d f947 373e
00000090: b0ea 033e 7106 233e c577 9cbd 3aa3 9c3d
000000a0: f7cd b4bd c26a 11bd c9a6 cb3c 7bca 4bbc
000000b0: 3518 e1bd 43ff 6abd a253 f8bd bbfe 69bd
000000c0: 7530 72bd 73ad 4cbe eb59 193e 804a 19bd
000000d0: d2f7 a7bd 4bb0 69bd c442 7ebd 7e99 ca3c
000000e0: d118 bb3b 0d57 953d 8eb3 f93d 9f8c da3d
000000f0: 66a9 bc3d 5119 0bbe 7d2a 33be aa5a f5bc
00000100: 080b 0ebe 861e 8cbc 059f 303e f3ba 8c3c
00000110: d8a8 133e 4732 e2bc f076 ca3d a356 36bd
00000120: 148b 97bd d8a2 da3c 77e4 903d 2809 5bbe
00000130: d810 08be 3f5b fb3c 9532 073e dd78 863c
00000140: 6fb8 433e 9e26 e1bd 2ade 323e a3a6 c8bd
00000150: 1d09 28be dac0 163d 4328 393e 00a6 c63b
00000160: 2137 b8bd 22f2 c0bd 69dc c33d 1680 223e
00000170: f098 3d3e 1650 25be f190 afbd 948b 38be
00000180: 367f 6cbe ad17 d53d 67a4 12be 780a e13d
00000190: 1838 3dbd fc18 e5bd 08da b2bd 2485 5d3c
000001a0: 5f80 23be 3834 123e d151 66be c5b7 2abe
000001b0: ee85 d53d fcd3 be3d 2bd1 0a3e de03 e93d
000001c0: e50f 3a3d 3a04 fa3d 62e9 7cbc 6eec eebd
000001d0: 8f4f 4c3d 99d4 0b3e 4137 22be 2dba dbbb
000001e0: f839 2ebe b0a0 38bc 32f1 963d 27a8 69be
000001f0: 894a 98bd 03d5 30be 47fd 51be efbc 493d
00000200: fdef 84bd 7bd0 203e 5817 e2bd 943a ccbc
00000210: 458b 843d 85bf 343e 27c8 30be 1374 953d
00000220: 8045 193c 7a2e a3bd 1dc3 5ebe bf23 0bbe
00000230: 1873 173e c1e7 323e c69d f7bd aeb9 20be
00000240: 43cf d63d fc88 143e 6224 06bc acd7 a03c
00000250: 3c09 16be 9de2 3a3e 744c e7bd b47e 563e
00000260: 5864 5abd fc26 51be acc6 173e 4b06 46be
00000270: 8e71 5cbb c724 a1bc 0f0a 313d 7e48 503e
00000280: 254b 3cbc 29c0 2fbe 4f4a 96bd 7c0e 4d3e
00000290: 4000 643e 7415 133e a239 07be af2b e7bd
000002a0: 4961 2c3c 0605 9ebc fdc7 95bd 7f06 1d3b
000002b0: d69b 1fbc 513d 00be a55b 053e 62a8 bf3d
000002c0: fec0 c93c 915f 3a3d 8dc3 433e dfa6 fa3d
000002d0: 11ea 2b3e 179e a1bd b812 bb3c e23f 413e
000002e0: 4452 483e d9ca 613d be56 42bd 1001 fe3d
000002f0: b759 b0bc e44b 5cbd 6511 903c 2c20 25be
00000300: 9efc 19bc 5af3 14be 73a8 d13c 2cd6 c13d
00000310: 866c 423e 5f4a 56be 6e44 a63d 631b 4e3e
00000320: 2b16 54be 63d2 2b3e f540 ce3d 31a2 453e
00000330: b14b ecbb cc81 723d 8a2b 11bd 97ba 103c
00000340: 224c 5a3d bd6c 90ba f839 e6bd df98 433c
00000350: 27fa 873d 32d7 0dbd 3284 603d 1d9e 26bc
00000360: fda9 a43b 3f73 29bd 8a9c 453d 26d7 993d
00000370: 3ce9 013e 999e 223e 6b17 cabd ae43 82bd
00000380: 3096 4bbe 2152 0cbe 473c 99bb 9ff0 4d3e
00000390: fdf8 f4bd 930d 373e 2f92 6e3e c77d 3b3e
000003a0: 723e 6abd 4ea0 213d 8fa5 c73d e60e e93b
000003b0: d85a 8a3d b529 2b3e 795d 063d ff7f 18ba
000003c0: bd3c 01bd 4276 7bbd 85ab 473e fabd 513e
000003d0: a40e 3f3e 83fd 753d 0b83 533e 8ec4 3bbe
000003e0: 831d 353d a7a0 96bb 15e8 37be 58bd 0bbe
000003f0: 802c 0a3e 95a3 6a3c 37fa 173e 60c7 a9bd
0.1511526 -0.056598622 -0.160604 0.03008832 -0.05854689 -0.09738011 -0.057685707 0.16070205
-0.040231895 -0.20092733 -0.056342624 0.02906394 -0.101301484 -0.16611788 0.108730294 0.026516112
0.15536848 0.06663013 0.0095210215 0.015007391 0.16306907 -0.07269483 -0.16023174 -0.13918994
0.112209916 0.0005708918 -0.044190906 0.044201326 -0.038629957 0.20210537 -0.06604983 0.15771051
-0.123842925 -0.0061463937 0.033417586 0.17898549 0.12882495 0.15920426 -0.07640032 0.076483205
-0.08828347 -0.035502203 0.024859803 -0.012438412 -0.10990945 -0.057372343 -0.12125327 -0.057127696
-0.059128243 -0.1998804 0.14975707 -0.037424564 -0.08201565 -0.05705289 -0.06207539 0.024731394
0.0057097455 0.07291994 0.121924505 0.106713526 0.09211998 -0.13583876 -0.17496677 -0.029950459
-0.13871396 -0.017104398 0.17248161 0.017178988 0.14419878 -0.027611865 0.09885967 -0.044516217
-0.07399574 0.026688978 0.07074826 -0.21390212 -0.13287675 0.030683158 0.1320289 0.016415054
0.19113325 -0.10993694 0.17467561 -0.097974084 -0.16409726 0.03680501 0.18081765 0.006062269
-0.0899489 -0.09421183 0.09563524 0.15869173 0.18515372 -0.16143832 -0.08572567 -0.18021995
-0.23095402 0.104049064 -0.14320527 0.10988325 -0.046196073 -0.11186406 -0.087329924 0.013520513
-0.15966938 0.14277732 -0.22492148 -0.16671665 0.10425936 0.093177766 0.13556354 0.11377691
0.045425314 0.122078374 -0.015436502 -0.11666189 0.04988056 0.13655318 -0.1584139 -0.0067055435
-0.17014301 -0.01126878 0.07370223 -0.22818051 -0.074360915 -0.17268758 -0.20506774 0.049252447
-0.06491087 0.15704529 -0.11039609 -0.024930276 0.06471876 0.17651184 -0.17263852 0.0729753
0.009354949 -0.07967849 -0.21754117 -0.13587855 0.14789999 0.1747122 -0.1209064 -0.15695831
0.10488751 0.1450538 -0.008187385 0.01963409 -0.1465196 0.18250509 -0.11293879 0.20946771
-0.05331835 -0.20425028 0.14821881 -0.19338338 -0.003363702 -0.019670857 0.043222483 0.20340154
-0.011492525 -0.17163147 -0.07338392 0.20025057 0.2226572 0.14363652 -0.13205579 -0.11287629
0.010521241 -0.019289505 -0.07313535 0.002396017 -0.009741744 -0.1252339 0.13023241 0.09358288
0.024628159 0.045501295 0.19117565 0.122388594 0.16788508 -0.07891481 0.022836074 0.18872026
0.19562632 0.05512509 -0.047446005 0.124025464 -0.021527154 -0.053783312 0.01758642 -0.16125554
-0.009398608 -0.14545956 0.025593018 0.09464678 0.18986711 -0.20926808 0.08118521 0.20127635
-0.20711581 0.16779475 0.10070983 0.19300152 -0.0072111716 0.059205815 -0.035441913 0.008833549
0.053295262 -0.0011018735 -0.112415254 0.011938303 0.0663951 -0.034629054 0.05481357 -0.010169533
0.005025147 -0.041369673 0.04824499 0.075117394 0.12686628 0.15880813 -0.09867748 -0.06360565
-0.1988151 -0.13703205 -0.004676375 0.20111321 -0.11961553 0.17876272 0.23297952 0.18309699
-0.05718846 0.03945952 0.09748375 0.0071123717 0.06755608 0.16715129 0.032803986 -0.0005817413
-0.031552065 -0.061392076 0.19499023 0.20482627 0.18657929 0.06005622 0.20655458 -0.18336698
0.044217598 -0.004596788 -0.17959626 -0.13646448 0.13493538 0.014321228 0.14841543 -0.08289981

dyna_net.lstm.bias_ih_l0 f4 [64]
00000000: b205 2e3e 1900 19be c2d4 f4bd 4374 3f3e
00000010: 9e12 013e 1d26 10be c5a4 a83d fc16 fa3d
00000020: 8ab6 18ba ed39 993d 4162 0a3e 2e1e a03d
00000030: 55dd 9abc 9641 3abe dafa d53d 3fe8 5e3e
00000040: e1a6 8a3d 4ddf 1bbe cafd 2bbe cf52 14be
00000050: 92f8 febc 62d0 3bbe aeaf 8a3e 8789 4c3e
00000060: 0135 53bc 4399 d83d 7014 ad3e 4569 c6bd
00000070: f317 253e 7bf0 07be 1921 083e d366 e63d
00000080: b49c 263e 087c d3bd 8b0b 353d 8cc4 beb9
00000090: 9704 d53d ff86 153d 1873 953e bc45 7e3e
000000a0: ad03 6a3d 4c99 42bd faba 4bbe e056 2dbe
000000b0: e137 88be 9d21 073e 1b16 d0bd 2ece 05be
000000c0: d0d7 29be 2087 23be 1b77 20be b466 4bbe
000000d0: c67d e8bd 9175 c9bd a1ee 403e 2942 14be
000000e0: fa9a 14be 4da1 c4bd 686a 233e a4b5 edbc
000000f0: 4944 a4bd b379 2abc 20c0 28bd 1bdf bfbd
0.1699436 -0.14941444 -0.11954643 0.18696694 0.12604758 -0.14077039 0.08234552 0.12211415
-0.000582554 0.074817516 0.13514043 0.07818256 -0.018904367 -0.18189082 0.10448237 0.21768282
0.06770111 -0.15221901 -0.16796032 -0.14484714 -0.031124387 -0.1834121 0.27087158 0.19974338
-0.012891055 0.10576107 0.33804655 -0.09688047 0.16122417 -0.1327533 0.13293876 0.11250081
0.16270715 -0.103263915 0.04420046 -0.00036386063 0.10401266 0.036505695 0.29189372 0.24831289
0.05713241 -0.047509477 -0.19895545 -0.16927671 -0.26605132 0.13196416 -0.10160466 -0.13066933
-0.16586232 -0.15969515 -0.15670435 -0.19863397 -0.113521144 -0.09836877 0.1884103 -0.14478363
-0.14512244 -0.09601078 0.1595856 -0.029017277 -0.08020837 -0.010404992 -0.04119885 -0.09368726

dyna_net.lstm.bias_hh_l0 f4 [64]
00000000: 9448 f5bc 5b94 b63d b374 6c3d b76f 373e
00000010: 662a ab3d ec34 4ebe cace 053e 9146 183e
00000020: 5338 c6bd dc0d e6bd 0f4d 0d3e 992c 3e3e
00000030: cfab 1f3e 66de 203e a8ca 413d 9aea 4fbe
00000040: 01ef cd3d 9a22 093e 43ca 9c3d 1eeb 583d
00000050: aafb 253e 71f6 3c3e 5434 cd3e 282c c0bd
00000060: 7c7d 053e 1bbf 1a3e 6d38 833d 6576 05be
00000070: d177 453c 5dd6 3c3e d8e5 febc 78b7 063e
00000080: 1e22 16be 658f dbbd 2490 49bd 5567 8ebd
00000090: c8e7 14bd ba3c 7e3c 981e 423e daed 57bd
000000a0: 0a5d b23d 89b4 90be 1efa 54bd 73e6 98be
000000b0: 2360 9abc 3e9c be3c 1958 7d3d da88 9bbd
000000c0: ae17 05be 51ac ccbd 87d7 22be 0869 27bc
000000d0: c745 3f3d ac96 0b3e 1913 563e 905d 813e
000000e0: 97af 623e 24ed 1bbe a3bb 683e dd83 673e
000000f0: a8e6 00bd 533d f8bd 1057 403e 82db 573e
-0.029941835 0.08915015 0.05772848 0.1791371 0.08357696 -0.20137376 0.13067165 0.14870669
-0.09678712 -0.11233112 0.13798927 0.185717 0.15592884 0.15709838 0.04731241 -0.20304337
0.10055352 0.13392106 0.07655766 0.0529586 0.16209283 0.18453385 0.40078986 -0.09383422
0.1303615 0.15111963 0.06407247 -0.13033445 0.012052492 0.18441148 -0.031115457 0.13155925
-0.14661452 -0.1072071 -0.04920973 -0.06953303 -0.036353856 0.015517408 0.18956983 -0.052717067
0.08709152 -0.28262737 -0.051996343 -0.2986332 -0.01884467 0.023267861 0.061851595 -0.07594462
-0.12997314 -0.09993804 -0.1590253 -0.0102179125 0.046697404 0.13631696 0.20905723 0.25266695
0.22137295 -0.1522718 0.22727828 0.22608896 -0.03146997 -0.12121072 0.18783212 0.2107983

dyna_net.fc1.weight f4 [6, 8]
00000000: e72a ed3e 7115 40bf b065 ec3e 131a bc3d
00000010: 475b c1be e4ed 573f 3aaa ee3e 7ace a5be
00000020: d7ff 0bbe 6360 0bbe 6d83 803d 3b38 683e
00000030: 0af9 273f 34b5 063f e01f 683e 2fe0 eebe
00000040: 2bd8 96ba bc91 44be 1897 19be 114e c13d
00000050: bfd6 9d3a 89a1 96bd f9e7 f6bd 8a4f d83d
00000060: f909 17be 9876 49bc 8682 393e c960 923e
00000070: e40c e3bd 8eb6 e5bc 5eaa 04bf 9895 40be
00000080: af75 3abf 6201 6e3f 4aaa 273e 25cf 3c3d
00000090: 7a13 163f 3a98 5abf 8948 96bf 9b47 d63c
000000a0: a9b2 e93e e91d b3be c6b0 adbe f6f7 a9bd
000000b0: 9580 a3bf 9a19 02be 478a d93b 8749 4f3f
0.46321794 -0.75032717 0.4617133 0.09184661 -0.37764952 0.8434737 0.46614248 -0.32384092
-0.13671814 -0.13610987 0.062750675 0.226777 0.6561438 0.52620244 0.2266841 -0.46655414
-0.0011508515 -0.19196218 -0.14999044 0.09438718 0.0012042149 -0.07355029 -0.12055964 0.10562046
-0.14749898 -0.012296341 0.18116197 0.28589466 -0.11086443 -0.02804115 -0.5182246 -0.18807065
-0.7283582 0.9297086 0.16373554 0.046095986 0.5862347 -0.8538853 -1.1740886 0.026157191
0.4564412 -0.34983757 -0.3392393 -0.08299248 -1.2773615 -0.12705079 0.0066387984 0.8097157

dyna_net.fc1.bias f4 [6]
00000000: 89fa 05bf d542 263e 04df 30be 19a7 4bbd
00000010: b0e8 a1bd 1075 b13d
-0.5233541 0.16236432 -0.17272574 -0.049719904 -0.0790571 0.08664906

dyna_net.fc2.weight f4 [6, 6]
00000000: 546c 683d 90ac 2fbe c905 a6bd 2334 e5bc
00000010: 287a 643d 5c12 3abe 6461 bf3c c701 a03e
00000020: 5119 a73d cf50 543e bbe6 91bd ac1e b4bd
00000030: 1edd 14bf a24d 953e 0172 1bbe f7aa 46be
00000040: 4495 953d da48 11bf 272e 343f 4108 c53d
00000050: 9a83 18bd 3734 c7be 7b9d 1dbf 0d79 7fbe
00000060: 23db 4c3f b7fa b63e 59a9 d3bc 8dd7 6d3d
00000070: 4970 10bf 5862 c3bd 1aae 8a3d 67b6 2abe
00000080: fcb7 19be 2e48 41bc e9d1 a03e dd37 f13e
0.056743935 -0.17155671 -0.08106572 -0.027978962 0.05578056 -0.18171066 0.02336187 0.31251356
0.081591256 0.20733951 -0.071240865 -0.08794913 -0.581499 0.29160792 -0.15180208 -0.19401155
0.07303861 -0.5675179 0.7038292 0.09620715 -0.03723488 -0.38907024 -0.6156842 -0.24948521
0.80021876 0.35738155 -0.025837587 0.058066893 -0.56421334 -0.09540242 0.067714885 -0.16671143
-0.1501159 -0.011796994 0.3141015 0.47112933

dyna_net.fc2.bias f4 [6]
00000000: 3314 77bd c0fb c03e e602 5c3e 9a14 b83d
00000010: 5c25 a33e 172a 14be
-0.060321998 0.3769207 0.2148548 0.089883044 0.3186444 -0.14469181

dyna_net.fc3.weight f4 [51, 16]
00000000: c0bf 223e 8fbe 44bd eb7b 0f3e 0930 a43d
00000010: a629 41be 13aa e5b9 2797 853d 7cbc e1bd
00000020: 3090 803d 0e02 ab3c b244 c43d 2fa2 ccbd
00000030: aca2 31bb c027 1cbe 37d1 0ebd 3bfd 55be
00000040: c275 903d 9b55 31be 2658 e63d 21fb b13b
00000050: 5a76 d23d 82cc 9dbd 6988 12be fb74 7fbe
00000060: fb63 70bd f5b7 4dbe 2e93 1a3e 8cf1 f03c
00000070: f687 cb3d 9c08 3a3e 7b83 25bc 9ab6 063d
00000080: 629e 23bd d40f 503d eec4 333e 2fbe 0d3d
00000090: 06fd 79be 2a0e 5bba 5428 36be 0d0d 3b3e
000000a0: f7d0 7ebc 6b34 e1bd 58c5 913e 3627 993d
000000b0: 2e57 5e3e 44a6 f13d 03f8 2d3e 31d7 47bc
000000c0: 272c 693e b7cd 5ebd 88d7 5a3e 7d9a 4f3d
000000d0: b380 1a3e 6d67 0fbd 9f16 31be dfd9 103e
000000e0: e03d 173e cb77 15be e5b9 703e e195 203e
000000f0: 104b 36be f107 0ebe 1287 d1bd 68e7 77bd
00000100: a569 20be 8c8e 9fbd 852c 0f3e 16d9 dc3d
00000110: b0c1 01be 2ea3 9fbd bfc6 55be 32e5 e4bd
00000120: f915 4fbe 55cc 183e 9121 243e 9ed8 89bd
00000130: 7509 293e 9b0e ab3d 5bbf 13be 0177 38be
00000140: 3904 0a3e 4b4e 41be d5e0 95bd ac3d 00be
00000150: 2d49 bbbc a386 81bd 670e 33be 7a43 f8bd
00000160: ded7 03be 7b8e 1b3d bb21 00be 8e24 09be
00000170: 0489 3bbe 10be c23c baa5 8fbc 8ce2 42be
00000180: 6772 0dbe 3a37 3d3e 0473 003d 939d 2bbe
00000190: e5f0 b7bd 1e19 063e 8806 333d 2beb 2dbe
000001a0: 603b ae3c fcf5 95bd df55 fcbd 0ce4 d8bc
000001b0: 11f3 9c3d a1c7 0b3e 78ee dbbd 2425 cdbd
000001c0: 71ed b93c d100 37be b906 0cbe 1f37 a83c
000001d0: dd47 a1bc 15b8 1abe ade4 41bd 0331 2e3e
000001e0: 87c4 043c 18a9 503e 058a 6a3e 236e 383e
000001f0: 0f2a 813d 066b ce3d 5297 483e db68 9b3d
00000200: 49a8 773d ac8e 563e f78f e33d b584 3f3e
00000210: 14b7 2a3e b247 883d a542 34bc 6944 ccbd
00000220: b716 49be 4509 16be f81f 233b 8ca6 bcbd
00000230: dbb4 cc3d dcc4 81bd 8a3b 523e 7f65 8b3d
00000240: 8ba6 0f3e d794 723d 1c80 b7bd 2002 103e
00000250: 7e94 213e b332 39be 42c5 3abe f2e9 fcbc
00000260: a58c f8bd 0ba5 1b3d 1c0a 863d 111f be3d
00000270: e69d ce3d e9be 3f3d 1367 d93d c13a 45be
00000280: 0c9b 81bd c312 c5bd 3576 c53c 75fc 3fbe
00000290: 28e2 7dbe c335 bfbd 035a febd 2aea 23be
000002a0: ad8f ddbd 3c45 11be 1629 9ebd 8c54 72bd
000002b0: 801a e8bd 987e 87bc b073 673d 1e94 f8bb
000002c0: 1aa2 443e 4e16 17be 5b4d c63d 21c8 99bc
000002d0: 35d2 dcbc 8b27 59be 5e65 9e3d 8152 febb
000002e0: dbef 14be 21cd d7bd 19a2 ddbd 136a 743d
000002f0: ec46 ae3c b16a 08be f458 19be a024 2dbe
00000300: 8585 d33d 2b11 053d fe44 a6bc 08e2 c63d
00000310: b9e9 32be a89d 953d 4e0c 123d 4d02 1dbd
00000320: c6d1 0a3d b548 5abe 7f74 2e3e 8280 01be
00000330: 863d c83d ad91 823d 41c2 bf3d e232 1e3e
00000340: 4ab1 1dbd b168 2fbd dc8f b63d 2e12 e93d
00000350: 8a97 383e 8491 fbbd b7e2 123e 524d 21be
00000360: b07d 563d bda7 0a3e 64f6 50bd f544 0a3e
00000370: d290 ffbd a640 ec3d 1268 223d 7b1d c43d
00000380: 9581 583e 5dbf 46be 28da 163e ffd0 863d
00000390: 4eab b1bc 3b8c 98bd 8205 4dbd 875c 03be
000003a0: c725 a8bc 2631 e33d 0311 9b3d ff82 a73c
000003b0: 41d0 313e 9630 bd3d 040f fe3d c257 aebd
000003c0: 8db6 1bbe f5e1 23be 0ee6 07bd d30a 2ebe
000003d0: 8e7d bebd 8573 033e 3b22 b33d 0337 19be
000003e0: 13a2 2f3e 4f6e 39be ed82 423d 6054 663e
000003f0: 7931 9ebc 3ca1 2e3e 4bed 8bbd 8378 8d3d
0.1589346 -0.048033293 0.14012115 0.080169745 -0.18863544 -0.00043805 0.06522971 -0.11022279
0.062775016 0.020875003 0.09583415 -0.099918716 -0.0027105017 -0.15249538 -0.03486749 -0.20897381
0.070537105 -0.17317812 0.11247282 0.005431548 0.1027648 -0.077050224 -0.14309849 -0.24946968
-0.0586891 -0.20089705 0.15095207 0.029412054 0.09938042 0.18167347 -0.010102148 0.032888986
-0.039945967 0.050796345 0.17555591 0.0346052 -0.24412927 -0.00083562976 -0.17788821 0.18266697
-0.015552751 -0.10996326 0.28470874 0.07478182 0.21712944 0.11799291 0.1698914 -0.012197302
0.22770749 -0.054395404 0.21371281 0.05068444 0.15088157 -0.035010744 -0.17293786 0.14145611
0.14769697 -0.14596479 0.23508413 0.15682174 -0.17802072 -0.13870217 -0.10230841 -0.06052342
-0.156653 -0.077908605 0.13981827 0.10783593 -0.12671542 -0.07794796 -0.20876597 -0.11176528
-0.20223226 0.14921696 0.1602843 -0.067307696 0.16507514 0.08352395 -0.14428465 -0.18014146
0.13478173 -0.18877523 -0.07318274 -0.12523526 -0.022862041 -0.06324508 -0.17485963 -0.12122245
-0.12875316 0.037977677 -0.12512867 -0.13392851 -0.18313986 0.02377227 -0.01753508 -0.19031733
-0.13813172 0.18478099 0.031359687 -0.16759329 -0.08981494 0.13095519 0.0437074 -0.1698424
0.021268547 -0.073223084 -0.12321066 -0.026475929 0.07663549 0.13650371 -0.10738844 -0.1001685
0.022696229 -0.17871405 -0.1367444 0.020534096 -0.019687587 -0.15109284 -0.047337223 0.17010884
0.008103496 0.20377004 0.22904213 0.18010764 0.0630685 0.10079007 0.19588974 0.07588359
0.060463224 0.20952863 0.111114435 0.18702967 0.16671401 0.066543 -0.011002217 -0.09973986
-0.19637571 -0.14651974 0.002489088 -0.09211454 0.09995433 -0.06336376 0.20530525 0.06806468
0.14028375 0.059223976 -0.08959982 0.1406331 0.15779302 -0.18085746 -0.1823931 -0.030873273
-0.12136201 0.037999194 0.06544897 0.09283269 0.100887105 0.046812925 0.10615363 -0.19260694
-0.06328401 -0.09622719 0.024104217 -0.18748648 -0.24793303 -0.09336426 -0.12419512 -0.16007295
-0.108184196 -0.14186567 -0.0772268 -0.05916266 -0.113331795 -0.016539857 0.056506813 -0.0075860163
0.19202462 -0.14754602 0.09682723 -0.018772187 -0.026955703 -0.2120649 0.07734178 -0.0077613
-0.14544623 -0.10537172 -0.10821933 0.059671473 0.021274053 -0.1332195 -0.14975339 -0.16908503
0.10328201 0.032487076 -0.02029657 0.09711081 -0.1747197 0.07305461 0.035656266 -0.038332272
0.03389146 -0.21316798 0.17036627 -0.12646678 0.0977736 0.06375442 0.09363223 0.15449098
-0.038499154 -0.04282445 0.08914158 0.113804206 0.18026558 -0.12283614 0.14344297 -0.15752152
0.05236596 0.1354055 -0.051016226 0.13502868 -0.12478794 0.11535768 0.03965003 0.095759355
0.21143182 -0.19408937 0.14731658 0.065828316 -0.02168813 -0.07448622 -0.05005408 -0.12828265
-0.020525826 0.11093359 0.07571604 0.020448206 0.17364599 0.09237783 0.12405208 -0.08512832
-0.15206356 -0.16004165 -0.03317838 -0.16996317 -0.093012914 0.12837036 0.08746763 -0.14962392
0.1715167 -0.18108486 0.04748814 0.22493124 -0.0193107 0.17053694 -0.068323694 0.069077514

dyna_net.fc3.bias f4 [51]
00000000: 61e6 48bd 66b2 393e af02 403e de08 11bd
00000010: 3177 85bd c07b 1cbe 014d 68be eaa3 c3bd
00000020: e1ed 233d 05df bebd 8a79 f23d aaf2 b5bd
00000030: 3c27 01be b607 2bbe b0ba 193c 867d baba
00000040: 3a40 01be 785f 09bc 8d78 1d3e 830e 093c
00000050: 5f00 1ebe a158 c03c e65c 213e 6755 dd3a
00000060: 0754 a0bd 5345 0e3e 15cd 88bd 3795 513e
00000070: 2834 b8bd 418b e1bd 9fa8 203e f214 0dbe
00000080: 0250 403e dcba af3d a23f 14be 1c16 b3bd
00000090: e642 413e f11e 7b3c 1225 0cbd 1cb9 41be
000000a0: 44ce 95bd a47b cabd 8b79 70bd 7b9f de3d
000000b0: 8b40 16be f39a fcbd ae4e bc3d 9383 91bd
000000c0: 26d3 bbbd 0892 7e3d 8540 813e
-0.04904783 0.1813446 0.18751024 -0.035408847 -0.065168746 -0.15281582 -0.22685625 -0.095527485
0.04002178 -0.09319881 0.11839588 -0.08884175 -0.12612623 -0.1670216 0.009382889 -0.0014228083
-0.12622157 -0.008384578 0.15378018 0.008365276 -0.15429829 0.023479762 0.15758094 0.0016886414
-0.07828527 0.13893633 -0.06679741 0.20467077 -0.08994323 -0.11012889 0.15689324 -0.13777521
0.1878052 0.085805625 -0.14477399 -0.087444514 0.18873176 0.015327201 -0.03421504 -0.1891827
-0.07314733 -0.09886864 -0.058709662 0.10870262 -0.14673059 -0.12334242 0.091946945 -0.07105174
-0.09171133 0.062150985 0.25244537

repr_net.fc1.weight f4 [6, 4]
00000000: daef fd3e c5bb 32bf 5990 0f40 c636 b63d
00000010: 0b1f 913f 4ef6 54bf 8ef0 b340 9070 d6be
00000020: d752 81bf a510 2ebf 8a54 0ac0 6eee b6be
00000030: 8734 893e d3b4 a9be 56cc 46c0 2149 69bf
00000040: 0e2e abbf 6548 5f3f 07ca 90be 7d51 b53f
00000050: fb69 ec3d ba19 8cbf b17a 9a3d 752c c8be
0.49597055 -0.69817764 2.2431853 0.08897166 1.1337599 -0.8318833 5.6231146 -0.41882753
-1.0103406 -0.6799415 -2.1614099 -0.35728782 0.26797888 -0.3314577 -3.1062217 -0.9112721
-1.337343 0.8721984 -0.28279135 1.4165493 0.11543652 -1.0945351 0.07542933 -0.39096418

repr_net.fc1.bias f4 [6]
00000000: 421f 593f 8466 5bbe 73f9 c6bf 25bd 203f
00000010: a29e 85be b4ae 26bf
0.8481332 -0.21425825 -1.5544876 0.6278861 -0.2609759 -0.65110326

repr_net.fc2.weight f4 [6, 6]
00000000: 8671 01bf c89a 5abf 18b9 35be d3d9 ac3d
00000010: 2ebe ccbc c9a6 d53c 195f 123e e6c8 d2be
00000020: 5ae6 123d daf8 e6bd 58e4 6abd fee1 073d
00000030: beb1 5fbf 560e 28c0 c903 9abf 8038 b63e
00000040: 8904 95bf cce0 463f 21c3 333f dc32 81bf
00000050: a1ff 98bf 7525 acbf 50cd 02be dfe0 1e3f
00000060: 5684 913f b6ad 80be 79b4 8bbf 9396 89bf
00000070: 66d4 303e 9f36 2e3f fb24 8d3e fae4 0c40
00000080: d632 9c3f 2cf6 0d3f 9465 783f 0ad7 94be
-0.5056385 -0.8539243 -0.17746389 0.08439984 -0.024993028 0.026080506 0.1429409 -0.41168898
0.03586421 -0.112779334 -0.05734667 0.033174507 -0.8738059 -2.625875 -1.2032405 0.3558998
-1.1642009 0.7768676 0.7021962 -1.0093646 -1.1953012 -1.3448931 -0.12773633 0.62061876
1.1368511 -0.2513253 -1.0914451 -1.0749077 0.17268524 0.68052095 0.27567276 2.2014756
1.2203014 0.55453753 0.97029996 -0.29070312

repr_net.fc2.bias f4 [6]
00000000: acc8 7b3e 0505 fd3e e815 423f 73fd bc3e
00000010: ffec 543e 1526 36bf
0.24588269 0.49417892 0.75814676 0.36912116 0.20793532 -0.7115186
