pretrained_weights.pt (torch, 26487 bytes, 18 tensors)

pred_net.fc1.weight f4 [16, 16]
00000000: b46c 413d 5f21 bdbd 190d 88bd cd91 dcbb
00000010: f3be 213e 0663 223e 4998 50be e6d4 ac3c
00000020: 4fdf ac3d 0d21 8cbe 2d62 78be 3fbb 65bd
00000030: 54a7 653d 3c9c e53d 887b 583e 7d40 c93d
00000040: 45cb 53be d527 2a3e c818 17be 0d76 86bd
00000050: e649 4bbd 4575 de3d aeec 843e df7d b0bc
00000060: f611 99be 85c8 20bd 804b 7e3e 9d3e 4d3e
00000070: 30e6 883e d9e7 663c 5e9d d03d b515 4c3e
00000080: 1884 793b 2967 36be bdcd 733d 02b7 88be
00000090: 38f9 cfbc 3ed6 833e 9853 8a3e 924c 5dbe
000000a0: 28f4 e0be d6f7 633e 7ba8 9fbe 2884 323d
000000b0: 1dc4 d1bd 567e 243e 1ab2 823e 8016 cc3e
000000c0: af84 80bd 47f7 3b3e 5661 02bd 0051 713e
000000d0: 68f6 c03e 7f97 c8be a519 f1be 0b6a 0dbe
000000e0: f085 c73e 53d6 353e 238e b53e 6311 583d
000000f0: 615c 7a3e f0fd 0fbd abe5 b9be f117 bb3d
00000100: 5cf1 553e 3205 3d3e 80e4 51be 6392 1c3d
00000110: a348 343d 436c 083e c02b 07be 6c2d 22be
00000120: bb30 313e 221b 9bbc 670a 173d 1000 933b
00000130: a07a 7abe f030 b33e 2e16 753e 2e61 7cbe
00000140: 9426 0ebe 1726 0fbe f03a ccbd 7502 43bd
00000150: d64c 5d3e 6fe7 2c3e d38c 95bd a776 ecbd
00000160: 1962 40be 53e1 1cbe 3c09 be3b afc9 d03d
00000170: 8cf3 9b3c 1db1 f3bd ec92 a93d c7f4 ffbc
00000180: dca2 363e f843 a5bd bfd9 a53d 14c8 abbd
00000190: e839 1abe 6707 973d 2d99 a2bd 4259 c5bd
000001a0: 2fbc a8be df63 b13d 8935 7abd c154 f23a
000001b0: f5c7 08be ff44 033e 95db 983c 649a 8e3e
000001c0: e339 bb3e cdec d53e 4020 213e ff0a 84be
000001d0: ded2 74bd 2241 c9be 8767 973e 50a4 c7bd
000001e0: a742 bbbd 1686 24bf 5fac f13d e3c0 86be
000001f0: d635 b03e 53a0 eebc 50e1 b2bd aa92 b4be
00000200: cf38 fd3d 7076 2e3e afce babd 3036 32be
00000210: 9558 b73b 1359 22be be03 eb3c 26b5 86bd
00000220: 8fe4 60bc a0a2 f83d eaf3 95be 662d 333e
00000230: f955 eabd d8e0 d9bc b918 513e c308 063e
00000240: 057a 80be 56a0 bf3e f562 183e 9b35 9fbe
00000250: b409 43be 326f 89be 3c74 7c3e 977d 383e
00000260: a071 ccbe 9aa1 393e de40 813e b028 9b3e
00000270: d3cb e93e 2faf b8be 0c79 96bd 54ae 313e
00000280: 8680 70be e311 5ebe f863 a3bd 6bf4 3d3c
00000290: 860d 153d 4efc 00bc f0c1 b93a 3835 483e
000002a0: b04c adbe ca17 d43d 433b b3be 4cec 51bd
000002b0: 3536 373d a753 3cbd 6cd0 813e 65cb bf3d
000002c0: 657d 893e 6841 62be dc5a 013e c05d babd
000002d0: 67f6 77bc e437 123e be7f fa3d cca4 95be
000002e0: 8ed3 c6be 1213 5e3e 16b7 8bbe e8a6 8a3e
000002f0: 7763 353b c7e3 813e 82b1 41bd 1b5c aa3e
00000300: a8fc 613e 738e 513e fe75 c73a 8c46 e7bd
00000310: 46e6 a73e 22c2 0fbe b26a d5bd 5ae6 7bbd
00000320: b367 163e 19ea 08bf f221 81be 773b 73be
00000330: 9681 acbe db51 dd3e bffd d13e 7160 a5be
00000340: ae6d 0a3e 5bb2 d2be 967a 553e bbdb c9be
00000350: 5c5c 58be 06d9 303e cd6e 72bc ec79 8ebe
00000360: 8efc 1dbf e460 5a3e 797b 15bf a3f8 0fbd
00000370: ce3f 89be 5e4e 46bd 0e1c 763e 0050 ab3d
00000380: 48d7 7bbb 27b5 c0bd 7780 aa3d d1d5 2ebd
00000390: e518 8a3e 8fbb f53d f44a 3abe 5898 a93d
000003a0: c99d 8b3e 3f4b 89be fd9e 563d 207a 45be
000003b0: a0b1 0abe 984e 05be 1fff 03be 9ae4 aabc
000003c0: 08f2 1cbe 9968 bbbd db15 3abe cbca e73d
000003d0: 80ad 75bd 7657 9c3d 3ed6 1b3e 0e89 3dbd
000003e0: a6f4 973d 1e6a 053e c2b4 703d dfa4 883e
000003f0: b934 203e 7850 6b3d 545b 65bd 5368 3c3e
0.047222808 -0.09234881 -0.06643123 -0.006731248 0.15795498 0.15858087 -0.20370592 0.021097612
0.0844103 -0.27368966 -0.24256201 -0.056086775 0.05606778 0.1121144 0.21140873 0.09826753
-0.2068301 0.16616757 -0.14755547 -0.06565485 -0.049631022 0.10862211 0.25961822 -0.021544395
-0.29896516 -0.03925373 0.24833488 0.20043416 0.2673812 0.014093363 0.101862654 0.19930156
0.0038073119 -0.1781279 0.05952238 -0.26702124 -0.025387391 0.2574939 0.27016902 -0.2161124
-0.43936276 0.2226251 -0.31183228 0.043583065 -0.10242484 0.16063818 0.25526506 0.39860916
-0.062753074 0.18356048 -0.031831108 0.23566055 0.37687993 -0.39178082 -0.47089878 -0.13809983
0.38969374 0.1775754 0.35460004 0.052750956 0.24449302 -0.035154283 -0.36308035 0.09135426
0.20892853 0.18459013 -0.20497322 0.038225543 0.044014584 0.13322549 -0.13200283 -0.1583764
0.17303745 -0.018933836 0.036875155 0.0044860914 -0.2446084 0.34998274 0.23934242 -0.24646446
-0.13881904 -0.13979374 -0.09972179 -0.047609765 0.21611342 0.1688516 -0.07302251 -0.11546069
-0.18787421 -0.1532033 0.0057994407 0.10194718 0.01903703 -0.11899016 0.08279976 -0.031244649
0.17835563 -0.08069605 0.080981724 -0.08387771 -0.15061152 0.07374459 -0.07939372 -0.09636165
-0.32956073 0.08661627 -0.06108621 0.0018488393 -0.13357528 0.12819289 0.018659392 0.27852166
0.36567602 0.41782227 0.15734959 -0.2578964 -0.05977141 -0.39307505 0.29571173 -0.09748137
-0.09143572 -0.642671 0.11800455 -0.26319036 0.34416074 -0.029129183 -0.08734381 -0.35268146
0.12364351 0.17037368 -0.09121453 -0.17403483 0.0055952766 -0.15854292 0.028688308 -0.0657752
-0.013726368 0.12140393 -0.29287654 0.17497787 -0.11442179 -0.026596472 0.20419587 0.1308928
-0.25093094 0.37427014 0.14881499 -0.31095585 -0.1904667 -0.26842648 0.24653715 0.18016659
-0.3993044 0.18128052 0.25244802 0.3030448 0.45663318 -0.36071154 -0.073473066 0.17351657
-0.23486528 -0.2168651 -0.07978052 0.011593918 0.03638985 -0.007872654 0.0014172178 0.19551551
-0.3384757 0.103561 -0.3500615 -0.05125074 0.04472943 -0.045978215 0.25354326 0.09364966
0.2685348 -0.22095263 0.12632316 -0.09099913 -0.0151344305 0.14279133 0.12231396 -0.29227293
-0.38833278 0.21686962 -0.2728812 0.27080464 0.0027677694 0.25369093 -0.047288425 0.33273396
0.22069037 0.20464496 0.001521766 -0.112927526 0.32792872 -0.140389 -0.10420741 -0.061498977
0.14687996 -0.53482205 -0.2522121 -0.23753153 -0.33692616 0.43226513 0.41013905 -0.3230014
0.13518402 -0.411517 0.20847544 -0.39425454 -0.21128982 0.17270288 -0.014796925 -0.27827394
-0.6171349 0.21326023 -0.5839153 -0.035149228 -0.26806492 -0.04841458 0.2403414 0.08364868
-0.0038427878 -0.09409552 0.08325284 -0.04268438 0.26972118 0.119986646 -0.18192655 0.082810104
0.27268818 -0.2681522 0.052397717 -0.19284868 -0.13544321 -0.13018262 -0.1289029 -0.020860959
-0.15326703 -0.0915081 -0.181724 0.113179766 -0.059979916 0.07633869 0.15218446 -0.046273284
0.0741971 0.13028762 0.058766134 0.26688287 0.15645112 0.057449788 -0.0559953 0.18399172

pred_net.fc1.bias f4 [16]
00000000: 8768 a6be 8074 e8be 5701 733c 6beb 05be
00000010: e5ac abbe 47f8 8fbc 867a dd3d 87f0 72bf
00000020: 2f01 2d3e de6e 76bf ed53 70bd 55e9 823e
00000030: a2ce 82bf 70b2 55be b712 97bc d46c a0be
-0.32501623 -0.45401382 0.014831862 -0.13078086 -0.33530346 -0.017574443 0.10814385 -0.94898266
0.16894983 -0.9626292 -0.058673788 0.25568643 -1.0219309 -0.2086885 -0.018441541 -0.3133303

pred_net.fc2.weight f4 [53, 16]
00000000: 3133 df3d d503 4bbd 0843 2f3d a1c3 ad3c
00000010: 695a 0d3e e0ac 073e 6986 4fbd b7b5 2d3d
00000020: d77a 1dbd ba9c 7b3c c3f6 d2bd f205 45be
00000030: 035f 64bd d799 483d 6e7c 44be 0abe 08be
00000040: b58c 26be 5672 b0bd 1df0 b13c b9d3 d5bc
00000050: b98e 39bc c16f 4e3e 4665 f03d 9aa8 713c
00000060: 26ce 233e 798a 91bd c0e6 b23c 79b9 2fbe
00000070: caeb 483d 32b2 3ebe ea96 89bd 4992 2dbe
00000080: 7e6a 733d db64 213e 0438 5bbe fa86 43be
00000090: 4bea bebd bf56 133e 4888 053e 1411 5abd
000000a0: 0508 37bd decf 453e 7b2b 7abe ac14 a3bd
000000b0: 86a4 293d 21be 05bf 9695 f1bd e3ad 47be
000000c0: 5a44 693e b395 063e e4f2 c8be fd62 50be
000000d0: 7808 a6bd 40b9 1cbe 35ea 39be 96fe bebd
000000e0: 4cae 0b3c 4cc7 febd a3ee 0fbd 9cc9 8bbe
000000f0: f364 cabd a804 1ebe aa64 ea3d 9584 e43d
00000100: 0a7e d0bd cb8d c43c 35b3 d8be f389 19be
00000110: 4fba a7bc 1a97 c1bd 4023 54be c630 76bc
00000120: 43da 17be 1359 083e dd06 9f3d a6a6 93be
00000130: ca73 07be 8fe1 5cbd 7413 a73d 24e0 9b3d
00000140: 188a 4b3d 19d9 343e fd2d debd 617e 20be
00000150: 41a7 ce3d 6b4b 2ebe e0cb febd 0055 093e
00000160: 1c24 5dbd e826 a93d 3174 7cbe 4793 a03c
00000170: fe06 173e e82d babe 7ad7 58be 26ed 2d3d
00000180: 49ab d5bd 079a 9f3d 4b17 41be e170 7ebe
00000190: 3e48 5d3c c666 f53b 428a d53d 5fe2 463d
000001a0: 94eb cbbb 44b3 b63d b190 07be 2ea6 89be
000001b0: 01ad 423e 3e4a 99be fd21 a7bd 7b49 f53c
000001c0: c303 623e 2743 593c 440c e7bd 384f 99be
000001d0: 1949 af3b 2447 00bd 448d 38bd c4c9 15bd
000001e0: 7c90 30be a469 163e ac5e a5be 58fc 97be
000001f0: 3f6d 4a3e 74cd a2bd f1ef cb3d e5d4 9f3d
00000200: 2980 4e3e 6612 863e 8220 2cbe d0f3 8dbe
00000210: d837 773d cfda 443e a6ba bbbd 8184 c6bc
00000220: 9d75 85bd c1a6 7e3e 1a13 0bbe b5a5 37be
00000230: 898b 063e 4989 0fbd 1ede b63d 11ea d63c
00000240: c382 833d b9bc c43c 55c4 19be 8fc6 39be
00000250: cc5c 5ebd 6674 1fbe 63d8 82bb d5e4 273e
00000260: 314f ff3d b8cd ac3d f302 fc3d e737 49be
00000270: b774 debd 1087 acbe d5d9 ff3c 7e36 373d
00000280: f41e 4e3e 2029 3fbe c47b c6be 59ff cebc
00000290: ede6 9bbc fe5b 5cbd 33ee 44bd ed5d 0c3e
000002a0: 50f6 fabc ceff 0cbe 0530 1dbc 44af 5b3d
000002b0: 8e73 8ebe ae8f e1be d023 e13c beb1 b1bc
000002c0: 34d3 863e f274 343e 07f9 ffbd 9080 94be
000002d0: 4ec2 053e d92f 173d 2db1 27be dc91 023e
000002e0: 7d0d 14be eca9 06be da89 a9bd c24f c0be
000002f0: 556c 8a3d 215e 7dbe e2e2 1c3e af59 e1bd
00000300: 3cf6 3a3d 4f6b 16be 905c b4be f02a 5fbe
00000310: f572 1d3e 8d11 403d a653 e1bd 54a8 d0bc
00000320: 65de 93be f9c4 573e 66e0 03be 652f bd3d
00000330: bcaa 033e 4406 74be 35f8 8cbc 497f 7dbd
00000340: a7b5 06be c62d e53d c3ef 01be ceb5 74bd
00000350: ffcc 41be 523f 9b3d a721 713d 39b0 c93d
00000360: 809a 4fbd e4cd e9bd 0fd7 833d 8bf2 90be
00000370: 2235 1bbe 6d8d 553d 87e7 2cbd 7cf9 0b3e
00000380: 6bb4 cb3d 6212 b0bd d5f5 1cbd bb6c 78bd
00000390: cccf 8cbc 6d5f 24be d01d f43d 6e3f ab3c
000003a0: 7791 163e d3d6 703e 7f0c 3cbe 0135 193e
000003b0: d2da 81bc 35f1 ef3d 9ffa 153d 0d83 d2bd
000003c0: ee05 f6bd da67 403e 0072 98be e475 aebc
000003d0: fb19 01be aa2f 03be 95d1 013e 80b5 acbc
000003e0: 4535 45be ee51 7a3e 070d d53d 21d7 1b3c
000003f0: 5e2d 6bbb 1048 41bd 0821 0cbe 7558 3bbe
0.10898436 -0.0495642 0.042788535 0.021211447 0.1380402 0.1324954 -0.050665293 0.042409625
-0.038447227 0.015357191 -0.10300972 -0.19240549 -0.055754673 0.048974838 -0.19188091 -0.13353744
-0.16264613 -0.08615558 0.02172094 -0.026101934 -0.011325532 0.20159818 0.117380664 0.01474967
0.15996608 -0.0710649 0.021838546 -0.17160596 0.04905299 -0.18622664 -0.06718238 -0.16950335
0.05942773 0.1576113 -0.21408087 -0.19094458 -0.093220316 0.1438856 0.13040268 -0.053238943
-0.044685382 0.19317576 -0.24430649 -0.07962927 0.041416667 -0.5224324 -0.117961094 -0.19499926
0.2277998 0.13143043 -0.3924781 -0.20350261 -0.08107084 -0.15305042 -0.18155749 -0.09325902
0.008525442 -0.124403566 -0.03513969 -0.27302253 -0.09882536 -0.15431464 0.114449814 0.111581005
-0.1018029 0.023993393 -0.42324224 -0.1499403 -0.020474581 -0.094526485 -0.20716572 -0.015026277
-0.14829354 0.13315229 0.07764981 -0.2883808 -0.13227764 -0.053926047 0.08158007 0.07611111
0.049692243 0.17660941 -0.10848615 -0.1567321 0.10090495 -0.17020957 -0.1244123 0.13411331
-0.053989515 0.08259374 -0.24653699 0.019601477 0.14748761 -0.3636315 -0.21175948 0.04246249
-0.10433061 0.0779305 -0.18856542 -0.24847747 0.013505993 0.007489058 0.10426761 0.048555728
-0.0062231515 0.08920911 -0.13238789 -0.26884598 0.19011308 -0.29939455 -0.081607796 0.029942265
0.22071747 0.013260639 -0.11281636 -0.29943252 0.00534929 -0.031317845 -0.045056596 -0.03656937
-0.17242616 0.14688736 -0.3229879 -0.2968471 0.19768237 -0.07949343 0.099578746 0.07804278
0.20166077 0.26185912 -0.16809276 -0.27725077 0.06035599 0.19224094 -0.0916646 -0.024233105
-0.065165736 0.24868299 -0.13581505 -0.17934306 0.13139166 -0.035043035 0.08929084 0.026234658
0.06421425 0.024015771 -0.15016301 -0.1814215 -0.054287717 -0.15571746 -0.0039930805 0.16395886
0.124662764 0.08437675 0.1230525 -0.19650231 -0.10862105 -0.33696795 0.0312318 0.044729702
0.20128995 -0.18668032 -0.387663 -0.025268244 -0.019031012 -0.053798668 -0.048078727 0.13707705
-0.03063503 -0.13769457 -0.009593968 0.053633943 -0.27822536 -0.4405493 0.027482897 -0.0216912
0.2633301 0.17622736 -0.1249867 -0.29004335 0.13062403 0.036910865 -0.16376181 0.12750953
-0.1445827 -0.13150758 -0.08278246 -0.3756085 0.06758944 -0.24742939 0.15320924 -0.11003434
0.045644984 -0.14689372 -0.3522687 -0.21793723 0.15375884 0.046891738 -0.11002283 -0.02547089
-0.2888061 0.21071233 -0.1287857 0.092375554 0.12858099 -0.23830515 -0.017208198 -0.061888967
-0.13155232 0.11190371 -0.12689118 -0.059743695 -0.18925856 0.07580437 0.058869984 0.09848065
-0.050684452 -0.11416224 0.064375035 -0.28310046 -0.15156987 0.052136827 -0.04221299 0.1366939
0.09946521 -0.08597256 -0.03832038 -0.06065057 -0.017188929 -0.16052027 0.11919749 0.02090427
0.14703928 0.23519449 -0.18364142 0.14961626 -0.015851412 0.117159285 0.036615964 -0.10278902
-0.1201285 0.18789616 -0.29774475 -0.021296449 -0.12607567 -0.12811151 0.12677605 -0.02108264
-0.19258602 0.24445316 0.104028754 0.00951174 -0.0035885195 -0.047187865 -0.13684475 -0.18295462

pred_net.fc2.bias f4 [53]
00000000: 7bb5 063d c318 3ebc 6d9f 6cbf 86d3 69bf
00000010: 1138 78bf 70b7 69bf b54d 5dbf d176 52bf
00000020: 6eff 46bf f1f4 48bf 80c8 32bf 4d1c 17bf
00000030: 624b 21bf 8687 35bf c8ff 3fbf c4a2 07bf
00000040: 5546 cabe 66cc e6be 814e d8be 1e0b d6be
00000050: 2cd7 60be 5f4b 1fbf f47c 63be 27c2 41be
00000060: 32eb 2e3e a087 40bd a9c8 03bd 4275 c73e
00000070: 52e0 103f 32ce 2d3f efec b63e 7d6d ae3f
00000080: ce60 953f eded 723f 9de3 083f de8e 5d3f
00000090: 2de4 033f 77bd 103f ea62 603f aea6 fd3e
000000a0: 2ac0 0e3f beb5 253f 0ec0 013f 6a1c a43e
000000b0: 7cea 1b3f b6ba d73e b4e6 8b3e 877f 9d3e
000000c0: 3cea 203d 76cf 983e ad45 9a3a 5ade 7a3d
000000d0: 0160 3e3e
0.032887917 -0.011602583 -0.92430764 -0.91338384 -0.9696055 -0.9129553 -0.86446697 -0.8221255
-0.77733505 -0.7849875 -0.6983719 -0.5902756 -0.6300565 -0.7090992 -0.74999666 -0.52982736
-0.39506784 -0.4507782 -0.42247394 -0.41805357 -0.21957082 -0.6222438 -0.22215635 -0.1892172
0.17081907 -0.047004342 -0.032173786 0.38956648 0.56592286 0.67892754 0.3572764 1.3627163
1.1670167 0.94894296 0.5347231 0.86546123 0.51520044 0.565391 0.8765093 0.4954123
0.5576197 0.6473044 0.5068368 0.32052928 0.6090467 0.42134637 0.2732445 0.30761358
0.039285883 0.2984578 0.0011770033 0.061247207 0.1859131

dyna_net.lstm.weight_ih_l0 f4 [64, 16]
00000000: 4ef4 1f3e dd1c 4d3e 7fe6 67be a651 15bd
00000010: 6504 193e 4ede b7bc b0a5 493e 47fd 9c3d
00000020: 9493 4a3e baf8 7fbd 97bc 99bd 8ef0 33be
00000030: d690 423b 3c6e 4c3d 0ddb 45be 393a 1fbe
00000040: 8dde 253b e7fd 9dbd e33d 0cbe b807 223e
00000050: c9e3 0a3d 0c5c 56be 4c6c 20be 7865 e03d
00000060: 2c73 223e c148 a73d 7cbc 093e 7911 89bc
00000070: c7f2 17be 03b3 58be a06c 0e3d 3f63 503e
00000080: c59e 153d bfe7 c9bd 4e0a b2bd de83 39be
00000090: a26b 90bd dd04 c13d 4b98 573e 4854 d13d
000000a0: 3d16 273e b2a4 b6bd c65f 723d b755 ff3d
000000b0: 02be 0f3e dbb0 f13d 483f 9d3d e9d4 293e
000000c0: 0565 5cbd e984 343e f492 fd3d 0d72 0a3e
000000d0: 08c2 52be 3f61 d43d be9f aebc ee94 62bd
000000e0: d035 f83d aa8a 313e fe1f dcbc ec2b 8c3d
000000f0: deba 10bd 3f0a 463e 2aa3 4d3e 5a11 6cbc
00000100: ae4a 1c3e 4e36 2f3e 347b 5dbe 0b13 b83d
00000110: 1f43 cbbd da65 1cbe a84c 45be 6c33 3ebe
00000120: 03b7 023e fdbe 3abe 9157 813d e979 22be
00000130: 73b2 0dbc 0b6f 393e 5b83 933c fc3e b33d
00000140: 919a d43d 28e0 0a3d c633 29be 641c 1bbe
00000150: 838e 8fbb 0310 15be 0577 a0bd 5205 923c
00000160: 03c8 97bd a228 1f3d 5337 503e e1d8 bb3d
00000170: 0a7b f3ba 9fe1 2b3c 100f 4ebe 9612 01be
00000180: 5758 90bd 354e 4abd aa50 cdbd 015c 183d
00000190: 7149 543e a6e9 453e 5b9a 2a3e 4cd9 36be
000001a0: b601 a0bd 123a 1d3e 07fc 4fbe db7b 42be
000001b0: 7d5b 9ab9 a144 c23c c839 04be dfd4 4cbe
000001c0: 93d0 a0bd e124 293e c333 2fbe 2e3e 72be
000001d0: 619e 53bd e5e3 813d f33e 073d c506 4c3e
000001e0: 5d63 013d 23fc 683e 3dcd deba 0456 62be
000001f0: 26bf 5fbc 6060 11bd 0f54 acbd fa7e 8dbd
00000200: e2e6 95ba 56f4 c6bb c4ae 233d 832e 0a3e
00000210: c98a 06be d4ea 9c3d e014 61be 16a3 273d
00000220: eb62 603e 3676 d8bd c031 553e aaa1 2b3e
00000230: 2136 143d 4036 91bd b057 45ba 8135 5e3e
00000240: a18e 90bd f268 51be 8bbd 813d a0b2 c4bc
00000250: 56d1 1a3d 565e 07be 8dfd 91bc 128e 34bd
00000260: ed50 69bd b76e d8bc 496d ff3d 4446 60bd
00000270: b465 623d 2bc3 503e 9ab3 7d3d 2bec 0ebc
00000280: b578 9fbd a865 483d 64f6 8d3d 0d6e c43d
00000290: 91e6 20be 619f 243e 5b4e f73d 3d6c a0bc
000002a0: e964 263e 0821 59be 9b22 4abe c5c1 5e3d
000002b0: 3ff7 9dbb b83a 0abe e9a6 143e 747f db3b
000002c0: 2f2c 853d b848 643e 6782 a4bd 530f 5abd
000002d0: 0750 2ebd 02e2 08be ba1f d73c 6f0a ea3a
000002e0: c88a 3e3d a2ba 8dbd 22a6 39be 1876 09be
000002f0: 3de4 613e 2821 a53c 26d2 4ebe e775 883c
00000300: afda 1f3e d887 03be 5e52 27be 475a 133e
00000310: 8b3f c1bd 92d2 093e a1b6 45be 36e4 083e
00000320: 347d 1ebe e49b b03d d5d7 213e 3ccb 093e
00000330: fbc8 253e d2d2 69bd 0506 893c 8f52 043e
00000340: 8168 c6ba 234c aebd f487 ddbd 401f 63bc
00000350: 0432 d63d 803f d3bd 4a68 36be a4b9 80bb
00000360: 9421 323e 6a4b f5bd 0793 68bd 1057 0bbe
00000370: 61fc 1dbe 4fdc 543e 1781 02bb 8e47 433e
00000380: a639 20be 9658 f93d b7ee 5dbc 95b6 0e3d
00000390: 8485 35be 4a4e 333e 9fc8 febd 1a3a 323e
000003a0: c889 2d3d 6a67 b93d 1c9d 35be d9bc 16be
000003b0: d27a 153e e218 bd3a 4ffe fbbd 5872 ac3d
000003c0: abe1 c8bd f633 00be 30fc a33b 8d48 1a3d
000003d0: ff77 2e3e c9ad bbba f330 593e 26b9 c13c
000003e0: 7ab3 633c d9c2 32bc eee8 50be 5aa1 b9bc
000003f0: dc67 09be 0bf3 703d 9526 3e3d 234c aebd
0.15620539 0.20030542 -0.22646521 -0.03645482 0.14943083 -0.02244487 0.19692111 0.07665496
0.19782859 -0.062493064 -0.07506674 -0.17572233 0.002968838 0.049909815 -0.19321842 -0.15549554
0.0025309653 -0.07714444 -0.13695483 0.15823257 0.03390864 -0.2093355 -0.15666312 0.10956854
0.15864247 0.081681736 0.13450807 -0.016731964 -0.14838706 -0.21162038 0.03477156 0.2035036
0.036528368 -0.09858655 -0.08693372 -0.1811671 -0.07051779 0.09424756 0.21054189 0.102211535
0.16317077 -0.08918132 0.059173368 0.12467521 0.14037326 0.11801311 0.076780856 0.16585125
-0.053807277 0.17628826 0.12381545 0.1352007 -0.2058183 0.10370111 -0.021316405 -0.05531781
0.12119639 0.17338052 -0.026870724 0.06844315 -0.03533446 0.19339846 0.20081773 -0.014408434
0.15262863 0.1711056 -0.2162903 0.08988007 -0.09924912 -0.15273228 -0.19267523 -0.18574303
0.12765126 -0.18236919 0.0631553 -0.15866818 -0.008648503 0.18108766 0.018006971 0.08752248
0.10381044 0.03390518 -0.16523656 -0.15147549 -0.0043810024 -0.14556889 -0.07835201 0.017824803
-0.07411196 0.03885711 0.20333605 0.09172226 -0.0018576097 0.010490804 -0.20122933 -0.12604746
-0.070480995 -0.04939099 -0.10025151 0.037197117 0.2073114 0.19327411 0.16660444 -0.1785633
-0.07812826 0.15354183 -0.20310985 -0.1899256 -0.00029441333 0.023714365 -0.12912667 -0.20003079
-0.078522824 0.16517974 -0.1710959 -0.23656532 -0.051664714 0.063422956 0.033019017 0.19924457
0.0315889 0.22752433 -0.0016998422 -0.22103125 -0.013656413 -0.0354923 -0.084144704 -0.069089845
-0.0011436606 -0.0060716076 0.03996159 0.13494305 -0.1313888 0.076619774 -0.2198062 0.040927015
0.21912734 -0.10569422 0.2081976 0.16760889 0.036184434 -0.070904255 -0.000752802 0.21700098
-0.07058454 -0.2045019 0.063349806 -0.024010956 0.037797295 -0.1321958 -0.017821098 -0.0440808
-0.056961942 -0.02641998 0.12472016 -0.05475451 0.055272773 0.2038695 0.06193886 -0.008723299
-0.07786695 0.048925072 0.06931761 0.09591303 -0.15712954 0.16076423 0.12075492 -0.019582862
0.16249432 -0.21204007 -0.19739763 0.05438401 -0.004820734 -0.13498962 0.14516796 0.006698543
0.06502568 0.22293365 -0.08032685 -0.05323727 -0.04255679 -0.13367465 0.026260246 0.0017855893
0.04651907 -0.06920363 -0.18129781 -0.13423955 0.22059722 0.020157412 -0.20197353 0.016657783
0.15610765 -0.12844789 -0.16340014 0.14389907 -0.09435948 0.13459232 -0.19307949 0.13368306
-0.15477449 0.08623484 0.1580499 0.13456434 0.16189949 -0.05708582 0.016726503 0.12922119
-0.0015137346 -0.08510616 -0.108169466 -0.013862431 0.104587585 -0.10314846 -0.1781322 -0.00392838
0.17395622 -0.11977275 -0.05678084 -0.1360743 -0.15428306 0.20787166 -0.001991337 0.19070265
-0.15646991 0.121750996 -0.013545684 0.034842093 -0.17726713 0.17510334 -0.12440609 0.17404976
0.042367727 0.09052928 -0.17735714 -0.14720477 0.14597633 0.0014426971 -0.12304365 0.08420247
-0.09808668 -0.12519822 0.0050044283 0.037666846 0.17037962 -0.001431876 0.21210079 0.023647856
0.013897771 -0.010910713 -0.20401356 -0.022659946 -0.13418525 0.058825534 0.046423513 -0.08510616

dyna_net.lstm.weight_hh_l0 f4 [64, 16]
00000000: 9857 cfbd 5cc7 32be 69d7 983d 743b 0b3d
00000010: 3e6f 403e 02c9 e6bd 75ce 03be f068 48be
00000020: bfaf 99bd 0a27 6cbe 3bdb fb3d 147f 1bbe
00000030: 25df 983d 9281 bdbd bf03 23be d783 5ebe
00000040: 6fa5 473e f354 0c3d 0d25 2a3d 3940 36be
00000050: 1820 6cbd d1f5 4dbe a195 403d e518 3e3e
00000060: 1db3 ad3d 40c7 3c3d d197 06be 60a9 13be
00000070: 1687 233e a45c 533d dc7a 24bc 9224 c63d
00000080: f16b 113e 6080 763d e74e d6bc c6dc 0abc
00000090: aa03 bd3b 1f46 493e 2184 8ebd d509 5cbe
000000a0: 9e24 f53d fd76 0f3e a79d 76bd 50a2 5ebe
000000b0: 8991 85be 8e3f 293d 1f85 c43d 26fe 473e
000000c0: 6e82 a13d 4614 60bc 7cb3 0fbe 2fab cebd
000000d0: 0dfe eb3d 123d 163e 03ae 493d 25f8 3bbe
000000e0: 3a36 5c3e 38b0 b73d d624 30bd 0a85 173d
000000f0: 3c6a 36bd 4c38 0ebd 8e08 7a3d cd8d e9bd
00000100: a8d9 b1bd 75a2 5cbe 314c b23d 8efe b43c
00000110: d2e9 05be 32aa 483e aced 2a3d d408 69be
00000120: 6b3a d43d 5582 c53d b129 56be 7720 563e
00000130: cd06 1d3e c422 513e 944e ecbd 44ea 55be
00000140: 95ad a53d 8b20 16be 38af 0d3e e0fc 53be
00000150: f0f4 8cbd 789b d2bd 757a 5f3e 96ba 1c3e
00000160: cedf ba3d 1af6 b23d a8d8 473e b6e2 00be
00000170: 9f15 b5bd d349 4abd a542 a83d cce7 14bd
00000180: 93cb f33c 8303 ef3d e319 463e e163 cd3d
00000190: ca8b 61be 6717 533c 3f04 50be 388c aa3d
000001a0: 5447 5e3e 33e0 0abc 652f 9ebc 9d92 81bd
000001b0: 8c16 f83d 171e 4fbe 18fa 4d3e 9ca1 1e3e
000001c0: 43b7 c8bd f051 06be 6bd0 dbbd b0bb 843c
000001d0: 87bc cc3c 6c9d e43d ec40 eebd 4829 0b3d
000001e0: 9de8 10bd 4979 8bbd 0e9d 3d3e 29e8 1f3d
000001f0: fee4 14be ec56 373c 6dde 3bbe 6056 523c
00000200: 79a4 023e 4bcd d7bc 986b 063e 4f16 06be
00000210: 42fd d53c 4a69 943d 2784 853d a827 31be
00000220: 6b14 123e ee9d 30be e467 f13c 1516 c3bc
00000230: b7cd 5c3b b7c4 383c 7b1c 69bd 531e 9a3d
00000240: b96d cabd 6d3e bf3c e1a5 b63d 46cf 48bd
00000250: 027b 9d3d ca35 80bc ab71 dcba 5797 c93d
00000260: 8728 4fbe e78a b43d d728 2cbe 4130 4ebe
00000270: 33a0 a63d f23f 12be df86 08be ee2f c3bc
00000280: 4699 c73d 76fa 133e 36c4 febd cb04 85bd
00000290: 28d0 15be e221 9abb 8047 f6bd f19c 353e
000002a0: 2213 903d 0988 52bd f69b 2abe 2b5d 523d
000002b0: 7796 ec3d e14e 383e 987f 37bd b438 5a3e
000002c0: 1e42 eb3d b05d aebd 836c a0bd 82af fd3d
000002d0: fe3b 40be 7812 653e dea2 8bbc 5725 e9bc
000002e0: dcc1 4a3d 5057 5d3c 7df7 bdbd 2040 1cbe
000002f0: de7e 473d 264c efbd 518e e0bc 22fa e93d
00000300: 0f9e 893d 0460 ddbd 84e5 2f3e 68ee 27be
00000310: 52ad 983d b882 d23d ac3e 773d 97a8 5ebb
00000320: 8d7d 0d3e 6935 783d 98cd 5c3e 7075 c93d
00000330: b3a1 83be 59a5 543e 6d40 f2b9 7ab0 3dbe
00000340: d836 2dbe 23b1 3abe 89f0 c03d ab69 5e3e
00000350: ae5d 93bd 854c e8bd ee2a 0c3d ea8c 16be
00000360: b9ee 9dbc c07f a63d 0483 a6bd 7988 cb3d
00000370: 0649 bebd ac16 debc 7e7e 01be aa80 f63c
00000380: 4d3f bfbd 1b4e 7d3d 7cd0 94bd 87a0 c33d
00000390: e6ce f23d 7f75 66be e103 423d b9be 0cbd
000003a0: 9fa6 6dbd e9c0 1c3d 1907 053b 56bd 3fbe
000003b0: 41f3 ce3c 2cd0 3b3e 7f7b 5a3e 9c8d 4bbe
000003c0: 35da 89bd b661 4bbe 6433 49be c2c1 373e
000003d0: 47c4 5a3c 6af5 033e afe8 11be 2731 b0bc
000003e0: 83c6 3dbe b930 4dbe 7929 3e3e d7ad bebd
000003f0: a415 a8bd f72c ccbb 8187 173e 08d3 0b3c
-0.10124129 -0.17458862 0.07462961 0.033992246 0.18792436 -0.11268808 -0.12871726 -0.1957128
-0.07504224 -0.23061767 0.12297674 -0.15185195 0.074644364 -0.09253229 -0.15919398 -0.2172998
0.19496702 0.0342607 0.04153924 -0.17797936 -0.057647794 -0.20113303 0.047017697 0.18564184
0.08481429 0.046088457 -0.13143851 -0.1442008 0.159695 0.05160202 -0.010039058 0.09674944
0.14201333 0.06018102 -0.02616067 -0.008475488 0.005768259 0.19655655 -0.06958795 -0.21488126
0.11969875 0.14010234 -0.060208943 -0.21741605 -0.26087597 0.041320376 0.09595703 0.19530544
0.078862056 -0.013676709 -0.14033312 -0.100912444 0.11523066 0.14671734 0.049238216 -0.18356378
0.21505061 0.08969158 -0.04300388 0.03699211 -0.044534907 -0.034721658 0.061043315 -0.114039995
-0.08684093 -0.21546347 0.087059386 0.022094037 -0.13077477 0.19596174 0.041730568 -0.22757274
0.10362705 0.096439995 -0.20914342 0.20910822 0.15334626 0.20423418 -0.11538425 -0.20890146
0.08089749 -0.14660852 0.13836372 -0.20701933 -0.068826556 -0.102835596 0.21824057 0.15305552
0.091247186 0.087383464 0.19516242 -0.12586483 -0.088420145 -0.04938681 0.082158364 -0.03635387
0.029760158 0.11670592 0.19345812 0.10028816 -0.22025982 0.0128839975 -0.2031412 0.08327526
0.21706897 -0.008476305 -0.019309709 -0.063267924 0.121136755 -0.20226322 0.20114934 0.15491337
-0.098005794 -0.13117194 -0.10733112 0.016202778 0.02499224 0.11162838 -0.116334766 0.033974916
-0.035378087 -0.06810243 0.18516943 0.039039765 -0.14540479 0.011190157 -0.18346567 0.012837976
0.12758054 -0.026343009 0.13126981 -0.13094448 0.02612174 0.07246645 0.06519347 -0.17300284
0.14265601 -0.17247745 0.029468484 -0.02381424 0.0033691952 0.011277369 -0.056911927 0.07525315
-0.09884209 0.023345197 0.08918358 -0.049025796 0.076894775 -0.015650649 -0.0016818544 0.09843319
-0.20230304 0.08815556 -0.16812454 -0.20135595 0.08136024 -0.14282206 -0.13332699 -0.023826566
0.097460315 0.14451012 -0.12439768 -0.06495055 -0.14630187 -0.004703746 -0.12025356 0.1773565
0.07034899 -0.051399264 -0.16661057 0.051358383 0.115521364 0.1799884 -0.044799417 0.21310693
0.1148722 -0.08513963 -0.07833197 0.12386991 -0.18772885 0.22370327 -0.017045435 -0.028460188
0.049501285 0.013509586 -0.0927572 -0.15258837 0.048704974 -0.11684446 -0.027411612 0.11424662
0.067196004 -0.10809329 0.17177397 -0.16399539 0.07454933 0.10278839 0.060362503 -0.0033975
0.13817425 0.06059781 0.21562803 0.098368526 -0.25709304 0.207662 -0.00046205838 -0.18524352
-0.16915452 -0.18231635 0.094208784 0.21719997 -0.07195602 -0.1134272 0.03422063 -0.14702192
-0.01927887 0.08129835 -0.08130458 0.099381395 -0.09291272 -0.02711042 -0.12645909 0.030090649
-0.093382455 0.061842065 -0.07266328 0.095521025 0.11855869 -0.22505759 0.04736698 -0.034361575
-0.05802023 0.03826991 0.002029842 -0.1872457 0.025262477 0.1834113 0.21336173 -0.19878238
-0.06731073 -0.19861493 -0.1964851 0.17945006 0.01335246 0.12886587 -0.14248918 -0.021507813
-0.18532757 -0.20038117 0.18570508 -0.09310501 -0.082072526 -0.006230946 0.14797784 0.0085342005

dyna_net.lstm.bias_ih_l0 f4 [64]
00000000: 791e 233e c406 96bc dfa0 48be 3ac7 b33d
00000010: ab4d 3b3e 2ca8 24be 3f5c fbbc 60fd 803c
00000020: b4a9 d53c d482 853d 4966 ddbb 2450 11bd
00000030: 1855 d23d 3d4f fb3c 569c 3f3e 2fcf fabc
00000040: 67f0 203e d489 05be 8423 ad3e ba70 1abd
00000050: 328a 5f3e 02a8 773e d42b 8cbd 5e6e 443e
00000060: 8673 e7bb 6d1d 3ebd ae19 d83d 3404 213e
00000070: 526e ca3e 8fe0 c4bd 539c 833e f2b5 e73d
00000080: 17f3 82be a797 f8bd 92f3 d43d 1d36 2d3b
00000090: 6d36 9cbc 8cf2 94be e5ed 0bbe 5ed1 cebc
000000a0: ccaf 4cbe 1d9e 50be 32d6 413e 0f3e 12be
000000b0: efcd 42be caf0 623d 039a 0e3e 078b 1d3c
000000c0: 8f47 953d c3b7 613d 1e12 d13d e350 ef3d
000000d0: 4779 413e 2ace 01be df81 313e f788 e9bd
000000e0: c86c 9cbd 31cb 60bd 2dc6 e2bd f84e 643c
000000f0: 1447 003e 1bb5 333e e5e0 733e 3e4c ebbd
0.15929593 -0.018313773 -0.19592617 0.08778234 0.18291347 -0.16079777 -0.030683635 0.015745819
0.026081897 0.06519094 -0.006756578 -0.03547682 0.102701366 0.030677432 0.18711981 -0.030616371
0.15716706 -0.13040859 0.3381616 -0.03770516 0.21830061 0.24185184 -0.06844297 0.19182727
-0.007063332 -0.04641478 0.10551773 0.1572426 0.39537293 -0.09613144 0.25705203 0.11314
-0.25576088 -0.121383004 0.1039802 0.002642996 -0.019068921 -0.290913 -0.13664968 -0.025246318
-0.19988936 -0.20372815 0.18929365 -0.14281486 -0.1902387 0.055405416 0.13925938 0.009615666
0.07289039 0.05510689 0.10208534 0.1168535 0.1889392 -0.12676302 0.17334698 -0.11403077
-0.07637936 -0.05488128 -0.11072955 0.013934843 0.12527114 0.17549555 0.23816259 -0.114891514

dyna_net.lstm.bias_hh_l0 f4 [64]
00000000: b3c5 e5bd 51ef f0bd 6aba d63d 0221 453e
00000010: 7d25 3f3e 50dc 0c38 8be7 5b3e 3d17 17be
00000020: 4163 b6bd 3a76 6abc ab80 cebd d054 843d
00000030: 1fd3 f83d 0873 18be b946 1ebe 58a1 30be
00000040: d013 b6bd d727 183e 175b 8b3a f7d6 293e
00000050: 0b89 873e 900a 2bbd aaa0 403e 4e4b ebbc
00000060: 85a8 e03c 2560 803e 5e3f 463e e531 01be
00000070: e010 943e 4359 4cbe 97c2 5b3d 1423 d1bd
00000080: 6d76 c6bd 0d53 2439 226a dd3d d56d c9bc
00000090: 5026 513e d3c1 75be 8905 bbbd 40af a6be
000000a0: fc77 dd3c 4bac 73bd cd73 21be fa85 8abd
000000b0: 9c42 42be 7b56 153d 8b18 c53d 522c 93bd
000000c0: cfb5 e83d 2dbc ae3c 1028 603e 8fbd 3abe
000000d0: 8f5e ed3d 9030 8abd 6251 c23b fbbc 753e
000000e0: 070c 9ebd f6e8 cd3c 11cc 9a3d 7d5a 0cbe
000000f0: 04d5 353e 2259 853d 7ade eb3d 6550 ed3d
-0.11219349 -0.11764396 0.104847744 0.19250873 0.18666644 3.3583783e-05 0.21475045 -0.14754958
-0.0890565 -0.014310414 -0.10083135 0.06461489 0.12149643 -0.14887631 -0.15456666 -0.17249048
-0.08890498 0.14858948 0.0010632005 0.16585909 0.26471743 -0.04175812 0.18811288 -0.028722432
0.027424106 0.25073352 0.1936011 -0.1261669 0.28919125 -0.19955926 0.053652372 -0.10211769
-0.09690557 0.00015671198 0.10811259 -0.024588505 0.20424771 -0.2399972 -0.09131915 -0.3255558
0.027034752 -0.059490483 -0.1576683 -0.06763835 -0.18970722 0.036459427 0.09623822 -0.07186188
0.11362802 0.021329964 0.21890283 -0.18236373 0.11590301 -0.06747544 0.0059301117 0.23997872
-0.07717138 0.025135498 0.07558454 -0.13706394 0.1775704 0.06511141 0.115170434 0.115876

dyna_net.fc1.weight f4 [16, 18]
00000000: 75fa 58bf f02c 3d3f d9a4 003d e20e ee3e
00000010: eb32 b33c e098 c6be aa51 08bf a7e4 8dbd
00000020: acb0 8e3e c707 a3bd a2df b0be 3341 323e
00000030: 6f7b b33e 06f5 ac3e b360 f63e 2bec 19bf
00000040: 2101 38bc 66dc 0f3d 81bb 89be 264e 343e
00000050: 3b51 eebd d498 e8bc 7ef2 1abe a49e 013e
00000060: f558 873e bc37 f53b 117a b4bd a8ad 46be
00000070: 0502 a83d 8db9 be3d 81f7 32be 2604 b03d
00000080: 5e13 e7bc 5212 703e df1a 7bbd 9333 7e3e
00000090: 1eca 2c3f d004 4fbf eff0 bebd cd49 963d
000000a0: 45fc 92be 0d6d c83e 1894 c43e 3160 1c3e
000000b0: 9537 303e 08be 5b3d 5102 6f3e ea67 95be
000000c0: 96ca bdbd 0453 86be cec1 04be 3e13 ec3e
000000d0: 0698 3c3e 2026 58be a619 b5be 8057 a33e
000000e0: bb30 a23e f42a c43e 0af7 6e3d 00cc f9bc
000000f0: 8e1b fcbe a16b 8dbd f6f8 913e 8ba5 4bbd
00000100: 326f c33d 762e 1e3e 5923 cb3e 8c45 debc
00000110: 4ead 883e 3383 f6be c1f3 d7be 7c9f b23b
00000120: 33e3 d8bd deaf 46be 0844 d0bd f849 913c
00000130: b38f 563e c7c5 003e cd26 ee3d 3fdf f6bd
00000140: 31b1 9b3c edc9 a73d fe31 36be 2c4a 3c3e
00000150: e91e 723d dcea 15bd 3f14 3fbe ee0e 113e
00000160: f9d5 cd3d 7996 34be 05d3 bb3d 1452 82bd
00000170: 6f06 223d 0e96 d2be 8c93 933d 9ef4 cebe
00000180: 83da 65be 57f7 153d 7bcd 8d3e 68a3 0ebe
00000190: 16a4 b4be 38ad 8f3d 701a 46be 752b 33bd
000001a0: a400 bfbd eb45 ac3e 25bf 383e 376e 523d
000001b0: a356 edbc e9f3 76be 8ce3 26be a60c c63d
000001c0: 8835 973d 438f 1a3e ac2c 3b3e 2c2d 1d3e
000001d0: 6864 f93d 3f4c ce3d 894b 76bd b957 1cbe
000001e0: 15f0 9dbd 8baf 373e 5502 89be 33e3 803e
000001f0: e101 ac3e 1f9d 3a3d 0667 1d3e f978 97be
00000200: 9248 80bd 2da3 d83d cc56 a5be 1633 963e
00000210: d0bb 0e3d 7e78 8e3e b058 2f3e 1054 493d
00000220: ca6d 633c bbcb babe 2e7a edbd 49b1 5a3d
00000230: 5f0a 61be 7041 cc3e 3c6f a43e 277f c33c
00000240: c2e6 2b3e 47b4 233d 1a59 7a3e a544 d4bd
00000250: a91c 323c feae 963e f20f 763e d3c2 f9bd
00000260: c409 573e fa98 643e bba8 f73e c64b 0bbe
00000270: d69b 8d3e bdd1 04bf 53bf 373e 0d9a 01be
00000280: 2c0d a7be 8da4 f6be cb4c f33d 0984 b7be
00000290: cd4c 2d3e 779b 7b3e bc95 b5be 93e1 b03e
000002a0: d2f9 673d cf3e 8bbd 4a21 333e b069 4838
000002b0: ffef 913e abeb 78be a7a4 b6be 156c a6be
000002c0: 2ea3 2dbe d99d 9b3e 23f4 483e 6863 27bd
000002d0: 93ba 4ebe 5660 49be e80c 333e 2d73 15bc
000002e0: aeee 143e fa6f 263e 1245 ba3d 11be 473c
000002f0: 08de cbbc a29c d2bd 3efc 22bd d774 4b3d
00000300: 6aad 3dbe 4a92 19bc 02a4 38be 37bd b9bd
00000310: f72c 97bd 4e6c e43d da5a 1ebe 5d8d 3abc
00000320: 0b9f 2ebe 06f8 d33c 29e7 133e 912d 3dbe
00000330: 5088 c83d 599f 1e3e 8db7 fb3d bd28 543c
00000340: e8a6 203e fd3d e5bd 1457 39bd 10dc afbd
00000350: 67be 9fbb e8b5 aebd 9f59 c9bd 0ed5 6dbd
00000360: 01d3 8bbd 8622 83be 537c 69bc 9996 46bd
00000370: aa04 dbbd 7a5d f7bd 5d88 7bbd 0924 95bd
00000380: 181a 4ebe 5482 5bbe c757 0abe 639a bbbd
00000390: bac7 1f3e 38ee dfbc ba77 cfbd 513d 20be
000003a0: 820b 0a3b 0245 2ebe 119c 42be 47bd 18bd
000003b0: bee9 f2bd 93a3 d6bb 669c 8d3d fe51 25be
000003c0: d768 e43d acd7 47be c8cb 9cbd 5af7 62be
000003d0: 66a2 f7bd 3ac1 de3d 29a1 003e 0a0f 1e3e
000003e0: 71bc 06be 2f2d 9fbd a0c6 a1bd 0911 ddbc
000003f0: 69f4 4a3e 1cdd d6be 3a9b 833d 3841 d23c
-0.8475717 0.73896694 0.03140721 0.4649573 0.021874866 -0.3878851 -0.5324961 -0.069283776
0.27869165 -0.07960468 -0.34545618 0.17407684 0.3505511 0.33780688 0.4812065 -0.6012599
-0.011230738 0.035122298 -0.26900867 0.17607936 -0.11636587 -0.028393187 -0.15131566 0.12658173
0.26435056 0.0074834507 -0.08812345 -0.19402182 0.0820351 0.09312735 -0.17477228 0.08594541
-0.028207477 0.23444489 -0.061304923 0.24824362 0.67495906 -0.8086672 -0.09323298 0.07338295
-0.2870809 0.391457 0.38394237 0.15271069 0.17208703 0.053648025 0.23340727 -0.29180843
-0.09267156 -0.2623521 -0.12964556 0.4610843 0.18417367 -0.21108294 -0.3537113 0.31902695
0.31677803 0.3831402 0.058341064 -0.030492783 -0.49239773 -0.06905294 0.28510255 -0.04971842
0.09542693 0.15447411 0.39675406 -0.027132772 0.2669472 -0.48146972 -0.42178157 0.005451141
-0.1059021 -0.19403026 -0.10169226 0.017735466 0.20953254 0.12575446 0.116284944 -0.120542996
0.01900539 0.08192811 -0.17792508 0.1838767 0.05911151 -0.036600932 -0.18660067 0.14165851
0.10050578 -0.17635526 0.09171108 -0.063633114 0.039556917 -0.41130108 0.07205877 -0.40421003
-0.22446637 0.036612835 0.27695832 -0.13929522 -0.35281438 0.07015461 -0.19346023 -0.043742616
-0.09326294 0.33647093 0.18041666 0.05137464 -0.028971976 -0.24116482 -0.1629774 0.09670381
0.07383257 0.15093713 0.1827876 0.15349263 0.12177354 0.100731365 -0.06013063 -0.15267839
-0.07711808 0.17938058 -0.26759592 0.2517334 0.33595183 0.04556 0.15371332 -0.29584482
-0.06263842 0.10577998 -0.32292783 0.2933585 0.03484708 0.27826303 0.17123675 0.049152434
0.013881156 -0.3648356 -0.115955696 0.05339173 -0.21976613 0.39893675 0.32116115 0.023864342
0.16787246 0.039966848 0.24448052 -0.103646554 0.010871091 0.29430383 0.2402952 -0.12195363
0.20999819 0.22323981 0.4837092 -0.13603124 0.27657956 -0.51882535 0.17944078 -0.12656422
-0.32627237 -0.48172417 0.118798815 -0.35842922 0.16923828 0.24571024 -0.354658 0.345471
0.05663473 -0.06799089 0.17493168 4.7782145e-05 0.28503415 -0.2430865 -0.35672495 -0.32504335
-0.1695678 0.30393866 0.19624381 -0.040866286 -0.2018836 -0.19665655 0.17485392 -0.009121698
0.14544174 0.16253653 0.09095205 0.012191311 -0.024886146 -0.102837816 -0.03979134 0.049671974
-0.18523183 -0.009373257 -0.18031314 -0.09069293 -0.07381623 0.1115347 -0.15464345 -0.011386243
-0.17052858 0.025875103 0.1444365 -0.18474413 0.097916245 0.15490474 0.12290869 0.012949166
0.1568867 -0.11193464 -0.04524906 -0.085868955 -0.0048749927 -0.085307896 -0.09831547 -0.058064513
-0.06827355 -0.25612277 -0.014250833 -0.048483465 -0.10694249 -0.12078376 -0.061409343 -0.07282264
-0.20127141 -0.21436435 -0.13510047 -0.09160306 0.15603533 -0.027335271 -0.10130258 -0.1564839
0.0021063988 -0.17018512 -0.19004847 -0.037289884 -0.11860989 -0.0065502613 0.06914596 -0.16144559
0.11152809 -0.19515866 -0.07656056 -0.2216467 -0.12091522 0.10876699 0.12561478 0.15435424
-0.13157822 -0.0777229 -0.07899213 -0.026985662 0.19819798 -0.41965568 0.064260915 0.025665864

dyna_net.fc1.bias f4 [16]
00000000: 17b7 a6be 4724 06be 34a5 94be 03c3 3dbe
00000010: c06e 0cbe c4fb 46be 86ae 143d 73b5 f9bc
00000020: 0583 9a3e afc4 e2be 6e2e 89bd bc2e 65be
00000030: 7b5e 06be 5840 6d3c 1c5a 72bd 45ab 77be
-0.3256156 -0.13099776 -0.2903229 -0.18531422 -0.13714123 -0.19431978 0.03629925 -0.03048203
0.30178085 -0.44290683 -0.06698309 -0.22381109 -0.13121979 0.014480673 -0.059167966 -0.24186428

dyna_net.fc2.weight f4 [16, 16]
00000000: ca0f 013e e0a3 57be ff39 e13d 6381 a3bd
00000010: f0b5 d13c 7cc9 85bd ff1d 83be 88db 96bd
00000020: 034a 07bc 1c05 013e b451 653e d53c f8bd
00000030: fb1a 04be 271a d3bc 5cae 84bc d1c1 793d
00000040: d0ca c03e 24d9 bbbd bbf8 a83e 303d e53d
00000050: fc80 8ebd 2efe 7bbe 9ae4 6dbe 05ef 1c3d
00000060: 1ab8 f0bd 9fc4 3b3e 1076 9bbd 941e 65be
00000070: fb41 34be 1695 6c3e 155e 4c3e fb38 3bbe
00000080: ac01 983d 500a bf3d 78dd 09be 399d 0d3e
00000090: d44a 4fbe 08b7 eabd df88 9cbd d543 d2bc
000000a0: feae aabd 7eb9 df3d c3ac 11be 94d9 213d
000000b0: 8256 403e 82f1 c5bd de71 67be d996 fb3d
000000c0: 6afd 91be 57ee 2fbe fe57 ea3d 3869 573e
000000d0: 639c 553e 1ea3 ce3d d3cb 493e b2a5 753e
000000e0: 9b59 803e 4df9 9bbd 858c 4abe 57e2 ef3c
000000f0: 5c2f afbd 259c 22be 1900 933e d446 81be
00000100: 5464 aabd 1f6f b63c 3b78 8b3e 3e42 e33d
00000110: 1c93 babc 0a45 e2bd 7329 8b3e b6d1 923e
00000120: 0ac4 2f3e 1a4d b33e c965 49be 6925 173e
00000130: 7b82 493e cee2 c33d 1fa7 843e afab 9cbd
00000140: 0519 86be 9310 643e 095d 63be 41e4 57be
00000150: e010 013e 62da 9f3e 9c6b 02be 19b6 353d
00000160: 6301 0b3d f47b a7bc 20f6 0cbc 8a0d 16bd
00000170: 7aec d639 a3d5 7dbe 1717 18be 88bb 3b3e
00000180: 84fe 69bd f5f2 6dbb 0a20 05be 77e7 9cbd
00000190: 50a0 3fbe dc2c a6bd 375e 0f3d 55c7 e03c
000001a0: daa2 62be 20d0 83be 93d4 2dbe 3ff7 17be
000001b0: e391 1f3c 317a bd3d 6f87 04be 4fed 1c3d
000001c0: c384 fdbd e1c7 3e3d 2caf 8e3d 81a6 223d
000001d0: d94d 493e e394 21be 45a2 4bbe c024 383d
000001e0: 912e 1a3e d262 1ebd 14c9 22be 95b0 1abe
000001f0: 9001 ecbd dadc 34bd c198 8cbb 7083 013d
00000200: f1b7 7abd 2e35 2ebe 955d 8f3e 70aa 703e
00000210: d33e be3c bf73 7abe fb46 6e3c 4098 21bd
00000220: 5533 dd3e ffb9 d53e 6a4f 14be b487 80bd
00000230: e364 fd3c 0d19 7a3d f470 833e 703c e5be
00000240: 434a fabc 84ef 2b3d b293 82be 86aa 7d3d
00000250: 37ee 543e 1335 363e ac37 82be fe56 9fbe
00000260: 691f 29bd cc07 3e3c 7440 7a3d da4c 5cba
00000270: 60bb 32be 2a69 993d 38a4 143d 54a6 b03c
00000280: d319 c13e 476f 97bc ac77 203e d61e 763e
00000290: d6d9 f7bd a54d b5be b88f 97be cfda 5fbc
000002a0: 8314 863e 4c32 5e3e bd1d 8e3d 06e3 bcbd
000002b0: 4fef 8ebc 4cf8 1bbe f77b 03bb 40f7 6abe
000002c0: 0310 083e b689 fa3d d31a 8abe 09ea 27be
000002d0: b83f d0bd 87bd 743e 88f9 f7bc 3095 62be
000002e0: 3194 3cbe e3da 09bd 4bc8 d6bd 7c56 acbd
000002f0: 0845 08be 4f09 0bbe cac0 9f3d b539 07bc
00000300: c4b6 bd3e ae54 183e 544b a7bd 0d09 743e
00000310: 77d4 f5bd 5445 b2bc f636 623d 6d2d e4bd
00000320: 36ba 933d 2801 cf3d 7b3d efbd 695f c13d
00000330: df5d 253d b414 b13d 5ecd 9abd 0385 7abe
00000340: 21e7 e4be 3870 ef3d 401c 443e 7a4d 57be
00000350: 900e 2cbe 58a8 0dbd a1f1 633e 860f 813e
00000360: 0555 92be ca29 563e e205 e33c 505c 8cbd
00000370: 788c ba3d 125c d03d d341 e9bc cdc3 4abd
00000380: 0b05 65be 1fcc 853d 73b4 95bd ba8f 91be
00000390: 3955 40be c4af 683e bf59 a0bd 97af 383e
000003a0: 9e66 b9be 55f2 c83d e2be 12be e8db bbbd
000003b0: 34e3 343e 11a7 42be 9d7c 66bb 4ab7 bc3d
000003c0: ef57 753c d37c 173e 9e70 0dbd 77d2 75bd
000003d0: e1f8 40be 61a4 98bc 4044 263d 33ad 323d
000003e0: be28 44be 889d 4cbe 85fa 8c3d ebab 5b3d
000003f0: 4115 74bd 1d2e 103d 9004 3fbd f109 953e
0.1260368 -0.21058607 0.1099739 -0.07983663 0.02559945 -0.06532571 -0.25608823 -0.07366091
-0.008257392 0.12599605 0.22394449 -0.12120978 -0.12900917 -0.025769306 -0.016196422 0.060975853
0.37654734 -0.09172276 0.33002266 0.11193311 -0.069581956 -0.2460868 -0.23231736 0.038313884
-0.117538646 0.18336724 -0.07590878 -0.22374946 -0.17603295 0.23103747 0.19957764 -0.18283455
0.07422194 0.09328139 -0.1346339 0.13829507 -0.20243388 -0.11460692 -0.076432936 -0.02566711
-0.08334158 0.10924052 -0.1422606 0.03951414 0.18783 -0.096652046 -0.2260203 0.12284631
-0.28513652 -0.17180763 0.114425644 0.21036232 0.20860438 0.10089706 0.19706659 0.23988989
0.25068364 -0.0761591 -0.19780166 0.029282732 -0.08553955 -0.15879877 0.28711012 -0.2524935
-0.08319917 0.022269784 0.27240166 0.11096619 -0.022775225 -0.110483244 0.2718006 0.28675622
0.17164627 0.3501976 -0.19667734 0.14760365 0.1967868 0.09564744 0.25908753 -0.076499335
-0.26190963 0.22271948 -0.22203459 -0.21083166 0.12604094 0.312213 -0.12736362 0.044363115
0.03393687 -0.020444848 -0.008603603 -0.036634006 0.0004099345 -0.24788527 -0.14852558 0.18333256
-0.05712749 -0.0036308144 -0.13000503 -0.07661336 -0.18713498 -0.08114025 0.03500196 0.027438799
-0.22132435 -0.25744724 -0.16975622 -0.1484041 0.009739372 0.09251822 -0.12942289 0.038312253
-0.12378838 0.046577338 0.06967005 0.03970957 0.19658603 -0.15779452 -0.1988612 0.044956923
0.15056826 -0.03866846 -0.15897018 -0.15106423 -0.115237355 -0.044155933 -0.0042906706 0.03161949
-0.061210576 -0.17012474 0.28001085 0.23502517 0.023223316 -0.24458216 0.01454329 -0.039451838
0.43203226 0.41743466 -0.14483419 -0.06275883 0.030931896 0.061059047 0.25672114 -0.44772673
-0.030552989 0.041976467 -0.25503308 0.061930202 0.20793997 0.17793684 -0.254331 -0.31121057
-0.04128972 0.011598539 0.061096624 -0.0008403786 -0.1745429 0.074907616 0.036289424 0.021563686
0.37715015 -0.018485678 0.15670651 0.240352 -0.12102096 -0.354108 -0.29601836 -0.013663008
0.26187524 0.21698874 0.06939266 -0.09222989 -0.017448096 -0.15231436 -0.0020062902 -0.22945881
0.13287358 0.122332975 -0.2697359 -0.16397871 -0.101684034 0.23900424 -0.030270353 -0.22127223
-0.18415906 -0.033656012 -0.104874216 -0.08414933 -0.13307583 -0.1357777 0.078004435 -0.0082535045
0.37053502 0.14876053 -0.081686646 0.23831578 -0.12003415 -0.021761574 0.055228196 -0.11141477
0.07213251 0.101076424 -0.11681648 0.09442026 0.040372726 0.08646527 -0.07558702 -0.24464802
-0.44707587 0.11691326 0.19151402 -0.21025649 -0.1680243 -0.034584373 0.22260143 0.25207156
-0.2858049 0.20914379 0.027712766 -0.06853545 0.091088235 0.10173811 -0.02847377 -0.049503136
-0.22365205 0.06533074 -0.073098086 -0.28429967 -0.1878251 0.227233 -0.07829618 0.18035732
-0.36211103 0.09811846 -0.14330629 -0.09172803 0.17664796 -0.19009043 -0.003516949 0.09214647
0.014974578 0.1479371 -0.03453123 -0.060015168 -0.1884494 -0.01863307 0.040592432 0.043622207
-0.19156167 -0.19981968 0.0688372 0.05363075 -0.05959058 0.035200227 -0.04663521 0.29109147

dyna_net.fc2.bias f4 [16]
00000000: 4499 ddbc b5a5 97bd 8128 b33d 8162 26be
00000010: f326 2fbe 2551 37bc d322 213e 7ee8 8a3d
00000020: 073d 25be a63a 2e3d bfbb 9dbd f6fd d53d
00000030: 0b8a 4abd 59c1 483e 8c90 793e 1b1e 93bc
-0.027050622 -0.07404653 0.0874796 -0.16248514 -0.17104702 -0.01118878 0.1573594 0.067826256
-0.16136561 0.0425364 -0.07701825 0.1044883 -0.049448054 0.19605006 0.24371547 -0.017958691

dyna_net.fc3.weight f4 [51, 16]
00000000: faa5 bd3d 282c 8b3e ee06 3bbe 1cb0 833d
00000010: 8d66 11bd 8032 fc3d a0d8 a83d d31c 96bc
00000020: b0b4 463e cd9a 0fbe 2a02 3d3e 4ad9 a5bd
00000030: e5cd 0c3d 5406 533d f482 8abd 4c42 083e
00000040: 7942 10be 2136 773e b879 e8ba f625 fbbd
00000050: f3eb adbc b6e0 e9bd be73 7cbc cd39 4c3e
00000060: 37f0 db3a 0c1e 07bd 3379 bebd 643a 5dbe
00000070: cfde 773e caf1 dbbd 1f0e 79be 9637 153e
00000080: 3f30 b3bc 6bf7 0dbd 6967 66be 8d74 b53d
00000090: 3eab d6bd 5de0 a73d 4639 22be 85d6 123c
000000a0: 26a3 223e f2de febd 88bd b5bc de51 0ebe
000000b0: 5ae0 803e efb2 223e b216 16be 68d8 a6bd
000000c0: 0033 393e c36f 3b3e 7816 d4bd a7dd 5cbe
000000d0: 9ee3 193e d377 493e 7d42 91bd 0b87 393d
000000e0: df54 d3bd 7829 413e 4144 74bd e4ab 33bd
000000f0: 7d65 29bd 4560 533c 85d8 d33d 3737 ac3c
00000100: 8465 74ba 76d2 b3bd 036c 883d ca33 25be
00000110: bfec 9dbc d69e 563d 5ac3 d33d fe40 ad3d
00000120: aa16 32bc dde3 6e3e 7330 8d3d 9d08 62be
00000130: 2942 113e 937b 1bbe b42b 13be d803 26be
00000140: 94a7 4e3e 8aeb 043c 2a2c 403d 55a6 e7bd
00000150: bf9c 303e ea0d 00bd e93d 073d d386 3fbd
00000160: d204 57be 05f7 a13d 2b88 8a3b d241 eebd
00000170: 390c 613c 41a5 08bd 8eb6 74be 54e7 c93c
00000180: 04d5 4a3e 595e fabd 4651 eeb9 384f 14be
00000190: 3c32 59be fb16 6c3e 28a2 c83d aa8f 7c3d
000001a0: 4e95 10be 4d26 a2bd 04c8 b33d aeeb 47be
000001b0: 5ac0 81bc d386 bbbc bacb adbd c48c 95bd
000001c0: 92c2 793d 736b db3d 8aab 0cbe 3033 e83d
000001d0: d17b 47bd e5dc 203e 4c56 59bc 59c2 e8bd
000001e0: 8df9 df3d 27ff 7b3e cf8e da3b 2877 bdbd
000001f0: cacf eabd 0a54 91bd e021 6cbe 2e97 8fbd
00000200: 1ce0 b3bd 3787 883c 6447 38bd 6113 793c
00000210: e2e5 bb3d 6062 123d 4c7d 14bc eef4 6abd
00000220: dd45 d03d ed5b 443e e118 503e 1751 193e
00000230: 2d39 053d 23f6 1ebd 49dc 75be cf13 b33d
00000240: 9c4d 29be f64e 92bd d0c7 59be 9fb4 36bd
00000250: 4b59 823d f281 aebd aa0d 70be 85d8 bb3b
00000260: 0087 293e b696 6e3e 71cf 51be a161 ccbc
00000270: cd99 073e 93d8 e13c 8a41 b9bd cf5b 1dbe
00000280: 5b9d 10bd 438a 753e 9807 f43d c16e e9bd
00000290: a2b4 28bd 66b9 213e ad17 ec3d 1fa3 583e
000002a0: 9ab2 9a3d 415a f83d dd35 643c f41f 443e
000002b0: 8342 1ebe 350c 5a3e 3417 313e dad3 4fbc
000002c0: 64a3 f7ba 71cf debd 409e cc3d 63fa 2bbe
000002d0: cf32 58be 0011 eebc ffe1 dcbd 0700 333c
000002e0: 66f4 debd 545f fe3c 3351 83bc 3f6e 203d
000002f0: aa3d a13a f7e6 0e3e 1d92 b9bd 8a7e 6ebd
00000300: 8263 ebbd cc9f 103e 3f0c 89be 4ca8 55bd
00000310: 8582 a1bd 4f6a 443e a9b1 05be 4944 a53d
00000320: ce8a 36bd 2562 dfbc b30f 003e 5904 523b
00000330: 43cc cc3c b067 0a3d a211 293e 4004 14be
00000340: 60af b73c 76d4 e83b ab2e b83d 3f5c 6dbe
00000350: 5fdd bd3d b939 0d3e d1e6 9b3d 3f19 fa3d
00000360: 2740 033e 19c4 0d3c 14bf 3f3e 9709 7a3b
00000370: 9db2 1abe c43d a43d 7540 0cbe d9cd b2bd
00000380: 25fb 573e aef8 743e 148e 053e de9a e03d
00000390: e489 8c3d ea1d ccbd aead 2bbe 7920 e1bd
000003a0: ad99 d6bd 3639 783e c791 c2bd e4bd 36be
000003b0: b0fe e6bd 4554 e93c b614 a9bd d5b4 6bbd
000003c0: ed2b d8bd 5682 e6bd d65e cebd 32a8 0cbe
000003d0: 28fc edbd e290 65be 0b27 103d 00fa 32be
000003e0: 66e8 fd3d a68e 4a3e 592c 563e 3dee 3dbc
000003f0: 3ad7 223e 3ada 51be f568 38be 3c64 883d
0.09260173 0.27182126 -0.18264362 0.064300746 -0.03549819 0.123143196 0.08244443 -0.018324291
0.19404864 -0.14023896 0.18457857 -0.08098085 0.034376044 0.051519707 -0.067632586 0.1330654
-0.14087857 0.24141742 -0.001773647 -0.122631 -0.021230673 -0.11419813 -0.015408454 0.19943924
0.0016779964 -0.03298764 -0.09300461 -0.21604306 0.24206088 -0.10739477 -0.24321793 0.14571986
-0.021873591 -0.034659784 -0.22500385 0.08860121 -0.104818806 0.08197091 -0.1584216 0.008962278
0.15882549 -0.12444867 -0.022185102 -0.13898417 0.25171167 0.1588857 -0.14657095 -0.08146745
0.18085861 0.18304352 -0.10355848 -0.21568929 0.15028235 0.19674616 -0.0709276 0.045294803
-0.10318922 0.18863475 -0.059635404 -0.0438651 -0.041356552 0.01290137 0.10344032 0.021022422
-0.00093229883 -0.087803766 0.066612266 -0.16133037 -0.019277928 0.05239757 0.10339995 0.08459662
-0.010869661 0.2332911 0.068940066 -0.22073598 0.14185394 -0.15183859 -0.1437214 -0.16212404
0.20181113 0.0081127975 0.046917118 -0.11311022 0.17247294 -0.03126327 0.033018027 -0.046759438
-0.20997933 0.07908443 0.0042276583 -0.11633648 0.013735824 -0.033360723 -0.23897764 0.024646439
0.19807822 -0.12225027 -0.0004545545 -0.14483345 -0.21210569 0.23055641 0.09796554 0.061660446
-0.14119455 -0.079174615 0.08778384 -0.19523498 -0.01583879 -0.022891438 -0.084861234 -0.073022395
0.060976572 0.10713854 -0.13737312 0.11337888 -0.048702065 0.15709265 -0.013265204 -0.11365194
0.1093627 0.24609052 0.006669856 -0.09251243 -0.11465414 -0.07096107 -0.23059797 -0.07011257
-0.0878298 0.016666038 -0.04498996 0.015202374 0.09174706 0.03573835 -0.009063076 -0.05736249
0.10169575 0.19175692 0.2032199 0.1497234 0.03252523 -0.038808953 -0.24009813 0.087440126
-0.16533512 -0.07143967 -0.21267629 -0.044605847 0.063646875 -0.08520879 -0.23442712 0.0057325982
0.16555405 0.23299679 -0.20489289 -0.024948897 0.13242264 0.027569091 -0.09045704 -0.15367053
-0.035306316 0.23978524 0.11915511 -0.11398078 -0.04118789 0.1579338 0.11527953 0.21155976
0.07553597 0.121265896 0.013928858 0.19152814 -0.1545506 0.21293719 0.17294008 -0.012684787
-0.0018893299 -0.1087941 0.09991121 -0.16794734 -0.21113132 -0.02906084 -0.10785293 0.0109252995
-0.10886459 0.031051315 -0.01602993 0.03916764 0.0012301703 0.13955294 -0.09061072 -0.058226146
-0.11493589 0.14123458 -0.26767156 -0.052162454 -0.07886223 0.19181179 -0.13056053 0.08069665
-0.04456597 -0.027268479 0.12505989 0.0032046048 0.024999743 0.03379029 0.16510633 -0.14454746
0.022422493 0.0071054054 0.08993276 -0.2317972 0.09270739 0.1379155 0.07612384 0.122118466
0.12817441 0.00865271 0.18725234 0.0038152689 -0.15107198 0.08019593 -0.13696463 -0.087306686
0.21091898 0.23922989 0.1304248 0.109670386 0.06862238 -0.09966643 -0.16765472 -0.10992522
-0.1047853 0.24240574 -0.09500461 -0.17845875 -0.112790465 0.028482566 -0.082559034 -0.0575455
-0.10555253 -0.11255328 -0.10076682 -0.13736036 -0.116203606 -0.2241855 0.035193484 -0.1747818
0.12397842 0.19780979 0.20915355 -0.011592445 0.15902415 -0.20493403 -0.18008788 0.06659743
